ARK/CLIP_2fc+Lsim/best_epoch_40.pth (torch, 214846 bytes, 3 tensors)

fc1.0.weight f4 [100, 512]
0	0xbdf29767	-0.11845284
1	0x3d90d57b	0.07071968
2	0x3ea29ba3	0.31759366
3	0x3f45ad67	0.77217716
4	0xbe2dcb8b	-0.16972177
5	0xbf445937	-0.7669863
6	0xbe59db89	-0.21275152
7	0xbe17e204	-0.14832312
8	0x3f3d242d	0.73883325
9	0xbdc99211	-0.09842313
10	0x3e538475	0.20655997
11	0x3cc13e88	0.023589388
12	0x3ea43d81	0.32078174
13	0x3f25b5a1	0.6473027
14	0xbc62e4b5	-0.013848473
15	0x3ddf823f	0.10913514
16	0x3e990d81	0.29893115
17	0xbeafb0d7	-0.34314606
18	0x3e606da6	0.21916828
19	0xbe069fb5	-0.13146861
20	0xbd274534	-0.04083748
21	0x3ee125c9	0.4397414
22	0x3f00bf16	0.50291574
23	0xbeb36996	-0.35041493
24	0x3ce77711	0.028255017
25	0xbefccfb7	-0.49377224
26	0xbf588108	-0.84571886
27	0x3e0dd1ef	0.13849615
28	0xbe2f397c	-0.17111772
29	0xbe84c64c	-0.25932539
30	0xbe501a6c	-0.20322579
31	0x3e711650	0.23543668
32	0x3e049fbb	0.12951557
33	0x3dea7aa1	0.11449171
34	0x3d86409d	0.06555293
35	0xbe0f9a31	-0.14023663
36	0xbe425ccf	-0.18980716
37	0x3ed790ba	0.42102605
38	0xbe85fb39	-0.2616823
39	0x3dbbe228	0.09173995
40	0xbe655a76	-0.2239779
41	0xbf1fabe3	-0.62371653
42	0x3f314386	0.6924366
43	0xbcc16e50	-0.023612171
44	0xbf0b66e5	-0.5445388
45	0x3d3ca0ed	0.04605191
46	0x3f0b5926	0.54432905
47	0xbe4fc155	-0.20288594
48	0x3f2e5882	0.681038
49	0xbe2fa178	-0.17151439
50	0xbf14b19a	-0.580835
51	0x3e41d5a5	0.18929155
52	0x3e882d00	0.26596832
53	0x3d38276c	0.04495947
54	0xbd18c378	-0.03729579
55	0xbcd2355a	-0.025660206
56	0x3d47a6d9	0.048743103
57	0xbd97b60c	-0.074077696
58	0xbea25384	-0.31704342
59	0xbf3dbbd1	-0.7411471
60	0x3ea917f7	0.33026096
61	0xbdccb7c6	-0.099959895
62	0x3e0ba873	0.13638477
63	0x3dee6581	0.11640454
64	0x3f023cb2	0.50873864
65	0xbf60865f	-0.87705034
66	0x3da18535	0.07886735
67	0xbb9f5234	-0.0048620943
68	0x3f4ee8fe	0.8082427
69	0xbecc7c61	-0.39938644
70	0xbe53fa1d	-0.2070088
71	0xbddd0ab4	-0.10793057
72	0x3d729638	0.05922529
73	0xbebc3a1e	-0.3676309
74	0xbb803e97	-0.0039137113
75	0xbf02b134	-0.5105164
76	0xbe3afd4e	-0.1826069
77	0xbf2bce6f	-0.6711187
78	0xbe4de88b	-0.2010824
79	0x3f59af0f	0.85032743
80	0xbec3f671	-0.38273957
81	0xbe1e388b	-0.15451257
82	0x3e8f433d	0.27980986
83	0xbd328c00	-0.043590546
84	0x3dc427fc	0.09577939
85	0xbde59145	-0.112093486
86	0xbd4e9396	-0.050433718
87	0x3f06a7bb	0.52599686
88	0xbc8ecd97	-0.017432017
89	0x3f00a79d	0.5025576
90	0xbcb118fb	-0.021618357
91	0x3da4e3b4	0.080512434
92	0xbd5c39f2	-0.0537662
93	0x3e3678ee	0.17819569
94	0x3ebf1f61	0.37328628
95	0xbe1e6115	-0.15466721
96	0x3ee9e17f	0.45679852
97	0x3ea94378	0.33059287
98	0x3e19e1bb	0.15027516
99	0xbec3dad0	-0.38252878
100	0xbe9f61aa	-0.311292
101	0xbe9c0fc5	-0.3048078
102	0xbf6796aa	-0.9046427
103	0x3d999543	0.074991725
104	0xbde74728	-0.11292869
105	0x3f5b2f1d	0.85618764
106	0x3dc3a564	0.0955303
107	0x3c039499	0.008031034
108	0xbf1774db	-0.5916268
109	0xbe92e423	-0.2868968
110	0xbe859023	-0.2608653
111	0xbe8a4ad5	-0.27010217
112	0xbe342230	-0.17591166
113	0x3e864947	0.2622778
114	0xbd02e887	-0.031960037
115	0xbbfa1aa0	-0.0076325685
116	0x3dbbff53	0.091795586
117	0xbf169412	-0.5881969
118	0xbdfecd18	-0.12441462
119	0xbc979a02	-0.018506054
120	0xbf8ca189	-1.0986797
121	0x3d29f9d8	0.041498035
122	0x3f887bd7	1.0662793
123	0xbe97a4ce	-0.29617923
124	0xbe5c699a	-0.21524659
125	0xbdfead58	-0.124354064
126	0xbe8c80d3	-0.27442035
127	0x3de68d72	0.11257447
128	0x3f0d1a03	0.55117816
129	0x3eeb4d17	0.45957252
130	0x3e9c832b	0.30568823
131	0xbea59233	-0.32338104
132	0xbe19fabc	-0.15037054
133	0x3dd88c9c	0.10573694
134	0x3e298dc5	0.16557987
135	0x3d4defaf	0.05027741
136	0x3e980330	0.29689932
137	0x3ee317be	0.4435405
138	0x3bb253c4	0.0054421145
139	0xbe344977	-0.1760615
140	0xbe7d9d2a	-0.24766985
141	0xbd6288ef	-0.05530637
142	0xbdea49db	-0.11439868
143	0x3e1a5fd7	0.15075622
144	0x3eef4c74	0.46738017
145	0xbd2ff797	-0.04296073
146	0xbe821a1e	-0.2541055
147	0x3edb1afa	0.4279402
148	0xbf3f5787	-0.7474293
149	0xbe354ff6	-0.17706284
150	0x3e666cd8	0.22502458
151	0x3e26d958	0.16293848
152	0xbe98aac7	-0.29817793
153	0xbdb23cea	-0.08703025
154	0xbf0c4871	-0.54798037
155	0x3e985b3f	0.29757115
156	0x3e544b9a	0.20731965
157	0x3f0c9c9a	0.54926455
158	0x3e23b6e9	0.15987743
159	0x3f8d4c42	1.1038897
160	0xbcb8f0f7	-0.022575838
161	0x3d103c68	0.035213858
162	0xbeed0087	-0.46289465
163	0x3e873ca1	0.26413444
164	0xbe390930	-0.18069911
165	0x3dbe2cc1	0.0928588
166	0xbef899f5	-0.4855496
167	0x3eedd48c	0.46451223
168	0x3ec67dcd	0.38767853
169	0xbecfd596	-0.4059264
170	0x3f2629bd	0.6490744
171	0x3ebe0d93	0.3711973
172	0x3f0edc15	0.5580457
173	0xbe802597	-0.2502868
174	0xbe07c5d1	-0.13259055
175	0x3f1ccf6a	0.6125399
176	0xbdb9085f	-0.090348
177	0x3f21a067	0.6313538
178	0x3e8ff079	0.28113154
179	0x3f5fb2ee	0.873824
180	0xbe3af2ba	-0.18256655
181	0x3ebea161	0.37232497
182	0x3d883e99	0.066525646
183	0xbe65614e	-0.224004
184	0x3d560187	0.05224755
185	0x3e016ac1	0.1263838
186	0xbf1b8a79	-0.6075817
187	0xbeb567af	-0.35430667
188	0xbf16f196	-0.5896238
189	0x3e0f896c	0.14017266
190	0x3ec6756d	0.38761464
191	0xbe9fb0ef	-0.31189677
192	0xbde35c8d	-0.11101637
193	0x3e47e1cf	0.19519733
194	0xbcf832ed	-0.03029772
195	0x3d1c847f	0.038212296
196	0x3eb011db	0.34388623
197	0x3f25d449	0.64777046
198	0x3e919927	0.28437158
199	0xbe8d09f7	-0.27546665
200	0xbf2ac690	-0.6670923
201	0xbf42bca2	-0.7606908
202	0xbf87631c	-1.0577121
203	0x3ee0a940	0.43879128
204	0x3ea94be5	0.33065715
205	0xbeb98160	-0.36231518
206	0x3e223077	0.158388
207	0x3f158277	0.584022
208	0x3ee58768	0.4482987
209	0xbe269002	-0.16265872
210	0x3ebf49d4	0.37361014
211	0xbde285a1	-0.11060644
212	0xba086591	-0.0005203123
213	0xbdb74d48	-0.08950287
214	0x3ee32ed7	0.44371673
215	0x3edc5b53	0.43038425
216	0x3e863ff0	0.26220655
217	0x3dde7526	0.10862188
218	0xbf3bbbf6	-0.7333368
219	0x3ec53ac8	0.3852141
220	0x3e7d7739	0.24752511
221	0x3f115b39	0.5677982
222	0x3ef07f83	0.46972284
223	0xbd86e045	-0.06585745
224	0xbe3d7b36	-0.18504032
225	0x3e13f867	0.14450227
226	0x3e5e70f9	0.21722783
227	0x3e387ea7	0.18017064
228	0x3e4c2dc3	0.19939332
229	0xbeb29002	-0.34875494
230	0x3df68e69	0.12038881
231	0xbf19d2a7	-0.60087055
232	0x3d9aa062	0.07550122
233	0xbed0b98d	-0.40766564
234	0x3ea1427f	0.31496045
235	0x3e414b15	0.18876298
236	0x3ef29453	0.47378787
237	0x3f51ff44	0.8203013
238	0xbe1bf330	-0.15229487
239	0x3db908a1	0.09034849
240	0x3f761cac	0.961375
241	0x3b0e3204	0.0021697292
242	0x3f6f8a52	0.93570435
243	0x3dad2b77	0.08455556
244	0x3d74ab55	0.059733707
245	0xbf2d50d5	-0.67701465
246	0x3f04fc7c	0.5194776
247	0x3ee9dece	0.456778
248	0x3e7a04df	0.2441592
249	0x3eaa72a1	0.3329058
250	0xbd139780	-0.036033154
251	0x3af53ded	0.0018710472
252	0xbebeeadc	-0.37288558
253	0xbe9fa037	-0.31176922
254	0xbc2c468f	-0.010514869
255	0x3ebbbdf7	0.3666837

fc2.weight f4 [20, 100]
0	0xbf3e987a	-0.7445141
1	0x3ea09e82	0.31370932
2	0x3eabe8b5	0.3357598
3	0x3c6193cf	0.0137681505
4	0xbe178658	-0.14797342
5	0xbe9ddf8b	-0.30834612
6	0x3f6bbe2d	0.9208706
7	0xbe368182	-0.17822841
8	0xbf3bc4da	-0.73347247
9	0xbf3360aa	-0.7006937
10	0x3d67dfd7	0.056609955
11	0xbd1bcf26	-0.03803935
12	0xbe0b2c34	-0.13591081
13	0x3ef068bb	0.46954903
14	0xbf6a5d7d	-0.915489
15	0xbfc69183	-1.5513157
16	0xbdc7ee7d	-0.09762285
17	0x3e741c21	0.23838855
18	0xbe4cf4e0	-0.20015287
19	0xbeaee0b0	-0.34155798
20	0xbc8d3886	-0.017238867
21	0xc0281580	-2.6263123
22	0xbfe1588a	-1.7605145
23	0x3f98fcc9	1.1952144
24	0xbf3974bd	-0.72443753
25	0x3e4c70ae	0.19964859
26	0xbf5646ad	-0.8370159
27	0x3f85c40a	1.0450451
28	0x3ea938fb	0.33051285
29	0xbe836c31	-0.2566848
30	0x3e95603b	0.2917498
31	0x3f7afba0	0.980402
32	0xbfbc54d9	-1.4713393
33	0xbe55ce40	-0.2087946
34	0x3e987152	0.29773957
35	0x3fc232f6	1.5171802
36	0xbf02f5fc	-0.5115659
37	0xc01849d4	-2.379506
38	0x3e8dba6d	0.27681294
39	0xbe249a8b	-0.16074578
40	0xbfbad768	-1.4596987
41	0xbc34bb7d	-0.011031029
42	0xbf697381	-0.9119187
43	0xbf07dcf9	-0.5307155
44	0x3e388d1f	0.18022583
45	0x3c426aee	0.011866314
46	0xbfb787ab	-1.4338278
47	0xbf763627	-0.9617638
48	0x3fae17ab	1.3600973
49	0x3f137e47	0.5761456
50	0x3f9ba340	1.2159195
51	0x3eded9e7	0.4352562
52	0x3ea8b046	0.32946986
53	0x3f30e06f	0.6909246
54	0xbfa89e0c	-1.3173232
55	0x3e307970	0.17233825
56	0x3ec51f52	0.38500458
57	0xbf987a14	-1.1912255
58	0xbf720dff	-0.94552606
59	0xbfc4a0b3	-1.5361542
60	0xc0097a52	-2.1480908
61	0xbf8dad18	-1.1068449
62	0xbd9b4f6d	-0.07583509
63	0x3e982368	0.29714513
64	0xbe7794b0	-0.24177814
65	0xbea52e65	-0.3226196
66	0x3eb4a31a	0.35280687
67	0xbcbf2505	-0.023333082
68	0x3cab9ced	0.020948851
69	0x3f451759	0.7698875
70	0x3dcfa3af	0.10138642
71	0xbf94fc6d	-1.1639534
72	0xbe20d786	-0.15707216
73	0x3ee739ee	0.45161384
74	0xbe78b16b	-0.2428643
75	0xbeb725ce	-0.3577103
76	0xbfe5cd4d	-1.7953278
77	0xbfe937d4	-1.8220162
78	0xbdc11a78	-0.09428877
79	0xbf60aab9	-0.877605
80	0x3e36790d	0.17819615
81	0xbf9e4f9f	-1.2368048
82	0x3f9faea6	1.2475173
83	0xbf957d5d	-1.1678883
84	0xbfa7f187	-1.3120583
85	0x3f2564e8	0.64607096
86	0x3fb87726	1.4411361
87	0x3f8d284b	1.1027921
88	0xbf942d36	-1.1576297
89	0xbe9e8502	-0.30960852
90	0x3dc8568f	0.09782135
91	0xbcdfb6ae	-0.027308788
92	0xbee0a43c	-0.438753
93	0x3f15a8a3	0.58460444
94	0x3f444090	0.76661015
95	0xbf02a39d	-0.51030904
96	0x3ea5c1e5	0.32374492
97	0x3efd086c	0.49420488
98	0xbd472d80	-0.048627377
99	0xbf84ba58	-1.0369368
100	0x3f4eae9b	0.80735177
101	0x3f6282a1	0.88480574
102	0x3f2cdf70	0.6752844
103	0x3d2398fa	0.03994081
104	0xbf8b7135	-1.0893923
105	0x3e227cb0	0.15867877
106	0xbf1468b4	-0.57972264
107	0xbf8b9e55	-1.0907694
108	0xbea19718	-0.31560588
109	0xbce1f4dd	-0.02758258
110	0x3db23186	0.08700852
111	0xbdb36f17	-0.08761423
112	0xbd98cab1	-0.07460535
113	0xbf0931bc	-0.53591514
114	0x3f86bafc	1.0525813
115	0xbf69ff43	-0.91405123
116	0x3f1ccfa6	0.61254346
117	0xbf4f3ef1	-0.80955416
118	0xbe3cd635	-0.18441088
119	0x3edfb014	0.43689024
120	0x3e25fb39	0.16209115
121	0xbfb24ad3	-1.3929085
122	0xbe4e0b8b	-0.20121591
123	0xbf3996e6	-0.7249588
124	0x3e1705b3	0.14748268
125	0x3f074852	0.5284473
126	0xbf20e344	-0.6284678
127	0xbfb3e3ae	-1.4053857
128	0xbe04f4c8	-0.12984002
129	0x3f165c28	0.5873437
130	0xbee1676d	-0.4402422
131	0xbf1d1db2	-0.61373436
132	0x3f7cab73	0.9869911
133	0x3f132ae1	0.57487303
134	0xbf20cc9d	-0.62812215
135	0xbfbda1a8	-1.4814959
136	0xbe3735b6	-0.17891583
137	0x3c75e94e	0.015009237
138	0xbd90e200	-0.07074356
139	0xbb1c2df6	-0.0023831106
140	0xbfba956e	-1.4576852
141	0x3f3a6dfe	0.72824085
142	0x3f750ec4	0.95725656
143	0xbc8c3ea1	-0.017119708
144	0x3dc47e34	0.09594384
145	0x3c3bbf91	0.011459247
146	0xbe921397	-0.2853057
147	0xbfe8b023	-1.8178753
148	0xbf879834	-1.0593324
149	0xbf2a349a	-0.66486514
150	0xc030cf6d	-2.7626603
151	0xbe3b22a3	-0.18274932
152	0xbf3c9dd1	-0.7367831
153	0xbe5e451d	-0.21706052
154	0xbd07dd16	-0.03316983
155	0xbf6b12fa	-0.9182583
156	0x3f695d4b	0.9115798
157	0x3f49c1aa	0.7881113
158	0x3f012beb	0.5045764
159	0x3d458067	0.048218157
160	0x3e26d206	0.16291055
161	0x3ecf3c26	0.40475577
162	0xbf75b886	-0.95984685
163	0xbeb4f7b4	-0.35345232
164	0x3ef043f1	0.46926835
165	0x3f1a02ca	0.60160506
166	0xbe9af0c7	-0.30261824
167	0xbf588cc3	-0.84589785
168	0x3d621254	0.05519326
169	0x3ef14411	0.47122243
170	0x3ef68894	0.48151076
171	0xbef09c54	-0.4699427
172	0xbe96e951	-0.2947488
173	0xbe882a8a	-0.26594955
174	0x3e90c526	0.28275412
175	0xbedaddc2	-0.42747313
176	0x3e9f46c1	0.31108668
177	0xbf1374fe	-0.5760039
178	0xbb791eba	-0.00380127
179	0xbecaa903	-0.3958207
180	0x3e00d8b0	0.1258266
181	0x3ecb14eb	0.39664397
182	0xc03663c6	-2.8498397
183	0xbf88e815	-1.0695826
184	0xbf9bcead	-1.2172447
185	0xbf2beef8	-0.6716151
186	0xbf7f3566	-0.99690855
187	0x3f02cabc	0.510906
188	0xbf64c805	-0.89367706
189	0x3ee1cc21	0.4410105
190	0xbed23cac	-0.41061914
191	0xbf343580	-0.70394135
192	0xbdd06ea2	-0.101773515
193	0xbe682e1b	-0.22673838
194	0x3e80031a	0.25002366
195	0x3dafeb47	0.085897975
196	0xc05a4d4a	-3.4109674
197	0xbd85faed	-0.06542001
198	0x3f0166bd	0.5054739
199	0x3eae4af4	0.3404156
200	0xbfa7d9c6	-1.3113334
201	0xbe85b499	-0.26114348
202	0xbf3177fe	-0.6932372
203	0x3d399554	0.045308426
204	0x3f57390c	0.8407142
205	0xbe09c270	-0.13453078
206	0xbe800e76	-0.25011033
207	0x3db26b33	0.08711853
208	0xbe1c71e7	-0.15277825
209	0x3e82f9e1	0.25581267
210	0x3dae8d2e	0.08523022
211	0x3d264ad8	0.04059872
212	0x3ed8f130	0.4237151
213	0x3f37d70c	0.7181251
214	0xbf0f544f	-0.5598802
215	0xbdebfd88	-0.115229666
216	0xbef573c1	-0.47939876
217	0x3f1c9574	0.6116555
218	0x3eee86b2	0.4658714
219	0x3e1a45e9	0.15065731
220	0xbe846214	-0.25856078
221	0xc00c90d2	-2.1963391
222	0xbf99ea73	-1.2024673
223	0x3e1146b2	0.14187124
224	0x3e19a5e5	0.1500469
225	0x3e1c0292	0.15235355
226	0xbf0ec0fd	-0.55763227
227	0x3f82db76	1.0223224
228	0x3e9d6848	0.30743623
229	0xbf0328d0	-0.5123415
230	0xbe9c90b8	-0.30579162
231	0x3d1828b2	0.037148185
232	0xc0090e10	-2.1414833
233	0xbf6e0eb4	-0.92991185
234	0x3f1463da	0.5796486
235	0x3ee33f59	0.44384268
236	0xbeadf50f	-0.33976027
237	0xc0156f53	-2.3349197
238	0xbeb1d5ef	-0.3473353
239	0xbd53ebbb	-0.051738482
240	0xbed58c2c	-0.41708505
241	0xbe152856	-0.14566168
242	0xbf5b358f	-0.856286
243	0xbed147ba	-0.40875036
244	0x3ed965f4	0.42460597
245	0xbda587e0	-0.08082557
246	0xbf222d1b	-0.63350075
247	0xbdb51a3d	-0.08842895
248	0x3f1257ab	0.5716502
249	0xbe758180	-0.23975182
250	0x3e39b321	0.18134739
251	0x3e8e9ada	0.27852517
252	0x3f42b5f1	0.7605887
253	0xbe6fabc3	-0.23405366
254	0xbeefc8f4	-0.46833003
255	0x3f74aa49	0.95572335

fc2.bias f4 [20]
0	0xbd89f4f7	-0.067361765
1	0x3d6428d9	0.055703018
2	0x3e0477ac	0.12936276
3	0x3db4a2f1	0.08820141
4	0x3dc9404a	0.09826715
5	0x3dfd1d38	0.12359089
6	0x3ddeca54	0.10878435
7	0xbd1f7742	-0.038932092
8	0x3e13ab5f	0.14420842
9	0x3de19231	0.11014212
10	0x3d0059d0	0.031335652
11	0xbb89b50c	-0.0042024907
12	0xbd70cd38	-0.05878946
13	0x3d31d17d	0.043412674
14	0x3d7f5a7d	0.062342156
15	0x3b70858a	0.003670069
16	0x3e139edd	0.1441607
17	0x3e21fef6	0.15819916
18	0xbe882430	-0.2659011
19	0x3dd7be90	0.10534394
