ARK/CLIP_2fc+Lsim/best_epoch_41-VitL-14.pth (torch, 214846 bytes, 3 tensors)

fc1.0.weight f4 [100, 512]
000000 5e da ee be cb 5d b7 3d 7e 88 22 3f 32 b8 98 bd
       -0.46650976 0.089534365 0.6348952 -0.074570075
000010 ae 1d b7 bd 84 ea e1 be 34 3e a9 3e a4 50 7a be
       -0.08941208 -0.44124234 0.3305527 -0.24444824
000020 a1 20 bd bc 79 66 00 bf f8 a3 28 3f 85 d9 9b 3e
       -0.023086848 -0.5015636 0.65875196 0.30439392
000030 ec 3d ef bd 5d e4 91 bd 5c fd 01 bf fe 2a 89 bd
       -0.116817325 -0.07123635 -0.5077722 -0.06697653
000040 b2 0a 57 3d 8f bf 3a 3e d4 26 d6 3e 21 76 8b be
       0.052500434 0.18237136 0.41826499 -0.27238563
000050 23 25 2d bd 35 67 e0 be 41 7f 85 3e d0 ca 0e be
       -0.042271744 -0.4382874 0.2607365 -0.13944554
000060 d6 19 af be ef e0 b6 be cc 00 95 3d fb 16 26 3e
       -0.341994 -0.35718486 0.072755426 0.16219704
000070 a0 6a 72 be 40 e9 72 3e 97 b1 9d bd 1e b8 5d be
       -0.23673487 0.2372179 -0.07699888 -0.21652266
000080 7e 3f 10 3f c8 29 9f 3e 56 39 0b be 87 3a 55 be
       0.5634688 0.31086564 -0.1359609 -0.20823108
000090 bd e3 31 3e f4 61 ea bd ea 95 75 3e d0 8d c5 3d
       0.17372032 -0.11444464 0.23982969 0.09646189
0000a0 3d b8 68 3e 99 6b 1b 3d 07 68 0e bf 33 18 38 3e
       0.22726531 0.03794441 -0.55627483 0.17977981
0000b0 95 71 b8 bd 60 64 64 3d b1 8f ce be a1 49 37 be
       -0.09006039 0.055759788 -0.40344003 -0.17899181
0000c0 a9 69 d0 3e 84 23 b0 bd 0b e7 03 be 3e 00 83 3e
       0.40705612 -0.08600524 -0.12881105 0.25586122
0000d0 99 b7 cf be b8 e2 67 3e 87 42 ef be c9 0c a7 3d
       -0.4056976 0.2264508 -0.46730444 0.081567355
0000e0 39 05 be 3e ee 0f 85 3c d0 ac ca 3e 92 91 00 bf
       0.3711336 0.016242947 0.3958497 -0.5022212
0000f0 d4 11 d2 3e c2 bc 84 be d0 15 a7 3d 5a 11 11 3e
       0.41029227 -0.2592526 0.08158457 0.14166775
000100 6c 9e c8 3e 1b 4e d3 bd ad 4d f8 bd 71 b8 54 be
       0.39183366 -0.10317632 -0.121241905 -0.20773484
000110 3d f6 ca 3e 09 68 5b be 31 82 c8 3d 29 f7 eb be
       0.3964099 -0.21426405 0.09790457 -0.46087006
000120 1d 18 51 3d 62 de 5a be 79 0a 9f be 3e b0 29 bf
       0.051048387 -0.21373895 -0.31062678 -0.6628455
000130 f7 0e b3 be 11 ed c0 be 93 42 fb 3d 23 92 27 be
       -0.34972355 -0.37680867 0.122685574 -0.1636434
000140 bb d5 2c be db 3b 07 3f 48 c6 b0 bd d0 0f 88 be
       -0.16878407 0.5282571 -0.08631569 -0.26574564
000150 2d fd 4d 3e dd 68 4f be eb ca 14 3c 40 31 59 3c
       0.2011611 -0.20254846 0.009081583 0.013256371
000160 99 0a 83 3e 07 95 51 be f0 16 69 3e 62 d5 94 bd
       0.25594023 -0.20467006 0.22762656 -0.07267262
000170 ad b1 e7 bd 45 e8 8c bd db c1 da bc ac ef fa bd
       -0.11313186 -0.068802394 -0.026703766 -0.12252745
000180 7a 67 c2 be d5 3e 74 3e a3 2a f7 be da f3 04 bf
       -0.3796957 0.23852094 -0.48274717 -0.5193459
000190 2b b9 bc be e7 85 b0 3d 8a 3f 89 3d 8f 6f e8 3e
       -0.36860022 0.0861929 0.06701572 0.45397612
0001a0 8e ef 0a 3f 01 b9 e3 3a c3 bd 87 be e1 7f 63 3e
       0.5427178 0.0017373861 -0.26511964 0.2221675
0001b0 a7 58 86 3e fd de 05 bf 50 5e fc 3e d4 66 ee 3c
       0.2623951 -0.5229338 0.49290705 0.029101767
0001c0 8e 92 3f be 43 c5 d5 3d d5 ed 5c 3c 4c 98 55 3e
       -0.1870825 0.10438015 0.013484438 0.20858878
0001d0 be 42 6e 3d 84 a0 dd be 51 81 52 bd 36 31 3b 3e
       0.05816912 -0.43286526 -0.051392857 0.18280491
0001e0 ba 2a 10 be e4 c8 10 be 2f ea c3 be fa 96 83 3c
       -0.14078799 -0.14139134 -0.38264605 0.016063202
0001f0 bb 89 12 be 1a ba 73 be 2f ac 2a 3e 31 9b 17 3e
       -0.14310353 -0.23801461 0.16667245 0.14805295
000200 55 cc 06 3f 23 5a 62 3e 80 39 60 3e be 38 96 be
       0.52655536 0.22104697 0.21896935 -0.29340166
000210 5b 3d 4e 3e 6a 5e 0c 3e 80 31 30 3c 6b 04 1e 3f
       0.20140593 0.13707891 0.010753989 0.6172549
000220 2f 63 cc 3e ba 04 05 bf 5f 7d ab bd cb 79 06 3e
       0.3991942 -0.5196034 -0.08373522 0.13132398
000230 61 f7 fb be 0e 6d a5 be d5 9e 0f be 41 df 63 3e
       -0.49212173 -0.32309765 -0.14025433 0.22253133
000240 08 05 b0 3c 7e b8 81 bb c9 30 d6 3d 31 eb 3d 3d
       0.021486774 -0.0039587608 0.10458524 0.046366874
000250 c5 d3 dc bd 17 ac 0e bf fb 79 f6 be e2 f7 9c be
       -0.10782579 -0.5573134 -0.4813994 -0.3065787
000260 f7 09 db bd 77 7d 4a bd 54 6e 81 3d 0f bf ed bc
       -0.1069526 -0.04943606 0.063198715 -0.029021768
000270 19 1a 1f 3f a5 ac f6 be 85 02 af 3e 65 7b 20 3b
       0.62149197 -0.48178592 0.3418161 0.0024487611
000280 b3 27 14 bf d0 32 ce be 4b 41 eb be 05 fc 9e 3a
       -0.57873076 -0.40273142 -0.45948252 0.0012129551
000290 12 4b 96 3e c2 61 8c 3d 73 ba ca be 94 1d 26 3f
       0.2935415 0.06854583 -0.39595374 0.6488888
0002a0 e4 5f 12 3f 7d b5 06 3f 2f eb 46 3e 30 43 02 3f
       0.5717757 0.5262068 0.19425653 0.5088377
0002b0 fe 07 07 3f c4 7f a6 bd d6 73 30 3e 40 2e 77 3d
       0.5274657 -0.08129838 0.17231688 0.06034684
0002c0 68 66 f8 3d a4 6b 00 3e bd d4 00 3e 8d b0 18 3f
       0.121289074 0.12541062 0.12581153 0.59644395
0002d0 6b 9f 10 3f f1 32 31 bd ce fe 5b bf 66 26 9b be
       0.5649325 -0.043261472 -0.85935676 -0.30302733
0002e0 17 10 c6 be 99 35 d2 3e 3e 1c 9a 3c 86 76 bc 3e
       -0.3868415 0.41056517 0.018812295 0.36809176
0002f0 a0 58 07 bf 51 62 97 3d 4b f2 33 bd 82 c6 96 bd
       -0.52869606 0.07391799 -0.04393224 -0.07362081
000300 5c 97 1e 3e c0 83 35 3e 71 dc ed be d2 26 80 be
       0.15487427 0.1772604 -0.46457246 -0.25029618
000310 18 74 72 3e cb b7 08 bd 84 63 9e be aa 46 95 be
       0.23677099 -0.033378404 -0.309353 -0.29155475
000320 4c 24 d7 be 91 b6 d4 be f2 81 8a be 2a 46 8c 3e
       -0.4201988 -0.41545537 -0.27052265 0.2739728
000330 f0 64 f0 be 10 c3 f9 be 8e 5e 04 be 5c 5a 94 3e
       -0.4695201 -0.48781633 -0.12926695 0.2897519
000340 35 8a 2c 3d d7 6b a0 3d e0 e7 51 be 9d 28 ad bd
       0.042123992 0.07833069 -0.2049861 -0.08455012
000350 d5 55 52 3f d2 17 be 3e ea 1d 5c 3e d8 74 33 bc
       0.8216222 0.37127548 0.21495786 -0.010953151
000360 11 46 be bc 5b 00 e0 be a3 dc 41 be bb 68 9e be
       -0.02322677 -0.4375027 -0.18931822 -0.30939278
000370 93 d0 d9 bd 6f 80 af bc 7b 19 c3 3e 22 c6 a8 be
       -0.106354855 -0.021423547 0.38105378 -0.32963663
000380 73 c1 90 3e a2 7b 86 3e e9 23 14 be e5 ea bc 3e
       0.2827259 0.262662 -0.14466824 0.3689796
000390 bd ea 1d 3e f5 d6 bc bd c8 43 8f 3d 69 20 fa be
       0.15421577 -0.09220687 0.0699535 -0.48852852
0003a0 24 7c e8 3d 48 d7 9e bb ec c9 26 3e 35 2f fa 3e
       0.11351803 -0.004847441 0.16287965 0.4886414
0003b0 37 f0 16 bf 3f b1 8c be 65 3d 11 bf a9 b0 9d bc
       -0.5896029 -0.27478978 -0.56734306 -0.019249277
0003c0 36 a4 1c 3f bf 24 d4 be ff 51 18 3e 89 f5 83 be
       0.61188066 -0.41434285 0.14875029 -0.25773266
0003d0 e1 a6 0b be e7 d2 77 be 51 48 89 3f df ce 55 be
       -0.13637878 -0.24201547 1.0725194 -0.20879696
0003e0 b4 13 c7 3e 6d 7c c0 be e1 ad b3 3d 68 e3 6f 3e
       0.3888222 -0.3759493 0.08773399 0.23426592
0003f0 a8 ad c2 be e5 02 ff be 75 5c 83 3e dd 3f c2 be
       -0.38023114 -0.49806896 0.25656477 -0.3793935

fc2.weight f4 [20, 100]
000000 95 09 2b bf dd af 9c bc f8 34 63 3e 16 77 18 bd
       -0.66811496 -0.019126827 0.22188175 -0.037222944
000010 f7 16 3f bf 64 e8 b3 bf c4 9c bc bd 3c 7b c2 be
       -0.74644417 -1.4055295 -0.09209588 -0.37984645
000020 b1 b4 f8 bf 41 35 14 3f d2 27 5e bd f3 4a ac bf
       -1.9430143 0.5789376 -0.054237194 -1.3460373
000030 44 89 92 3e 38 3b 94 bf 00 e1 fb bf 68 f7 bd 3d
       0.2862035 -1.1580572 -1.967804 0.092757046
000040 88 fd 16 bf e6 e2 c6 3e 47 22 fb 3d ee 31 36 c0
       -0.5898061 0.38844985 0.12262397 -2.8467975
000050 fa 32 07 bf 3a 26 37 c0 a7 0e b5 be 16 db 08 3f
       -0.5281216 -2.8617082 -0.3536274 0.534593
000060 8e 81 d1 bf a1 3b ff 3f c3 13 26 bf 24 65 43 be
       -1.6367662 1.9940072 -0.64873904 -0.19081551
000070 0e b3 11 c0 72 49 a8 be 98 6b 44 3f ef 58 23 3f
       -2.2765536 -0.32868534 0.76726675 0.63807577
000080 13 a0 63 3c 3a c2 52 bf e3 8f 32 3e d4 32 ad 3d
       0.013893145 -0.82327616 0.17437701 0.0845696
000090 58 8c 14 be 06 d4 41 bf 3a 23 e1 bf 83 4b 76 bd
       -0.14506662 -0.7571415 -1.7588875 -0.060130607
0000a0 12 e9 80 3e ed a5 46 c0 48 27 1a be 62 bc a7 3d
       0.2517782 -3.1038773 -0.15054047 0.08190228
0000b0 4c 61 cc bf 3d 93 27 3f ae 47 c0 3f b4 f5 5f 3d
       -1.5967193 0.6545904 1.5021875 0.05467768
0000c0 06 f3 07 3f 44 f9 a4 3d 24 97 4e bf c5 e6 27 3f
       0.531052 0.08055356 -0.8069937 0.655865
0000d0 d6 87 a8 3e 2c a2 88 3c ac d2 c6 3e 21 ac 0b c0
       0.32916135 0.016678892 0.38832605 -2.182381
0000e0 64 db aa bd 43 a7 b3 3e 55 83 ab bd 26 48 32 3f
       -0.08342627 0.35088548 -0.08374659 0.6964134
0000f0 af fe 8e 3e ed 69 07 bf b6 0f d0 bf 4a 87 c8 3e
       0.27928683 -0.52896005 -1.6254795 0.39165717
000100 f1 a1 85 be 07 12 e9 bc a7 c8 39 bf 7f d6 2d bf
       -0.26100114 -0.028450979 -0.72571796 -0.6790542
000110 35 ff f2 bf f7 75 77 bf d8 0d 1f 3f e9 0c 73 bf
       -1.8984133 -0.96664375 0.621305 -0.94941574
000120 79 b0 83 3e a3 5a a6 3d b2 c7 61 bf c0 75 9d 3f
       0.25720575 0.08122756 -0.88195336 1.230156
000130 6f d9 55 3e f2 e2 84 3d 47 98 35 be 3d cc f0 bd
       0.20883726 0.06488599 -0.1773387 -0.11757705
000140 85 59 db 3e e2 7a 8f bf 7a 19 f1 be 2d 53 4c 3f
       0.42841735 -1.1209376 -0.4708975 0.79814416
000150 f7 00 9a bf a9 99 89 3e b9 25 c7 bf 72 ce 99 bd
       -1.2031544 0.26875046 -1.5558387 -0.075100794
000160 5c f1 2f bf b1 3d a6 bf 50 e3 62 bf b2 e1 1b bd
       -0.6872766 -1.2987577 -0.886281 -0.038057037
000170 60 bc 1d bf 51 85 ab be 54 4b 21 bf c7 64 00 c0
       -0.6161556 -0.3350015 -0.63005567 -2.006151
000180 46 f7 19 be a8 16 fa be 31 fd 0d bf 13 29 5f bd
       -0.15035734 -0.4884541 -0.55464464 -0.05448253
000190 74 c3 1c 3f ec 63 4e 3d 39 47 df be 57 af 46 bd
       0.6123574 0.05038826 -0.43609026 -0.04850706
0001a0 ee d6 e8 3f ed 27 f4 3e 82 81 f0 3e 8d dc e1 bf
       1.8190591 0.4768671 0.46973807 -1.7645432
0001b0 df 32 6c bd 14 32 b5 bd 61 4b b5 3c 62 6f a0 bf
       -0.057665702 -0.08847442 0.02213067 -1.2533991
0001c0 3b 04 f0 be 3f 0e 70 be 05 58 52 bf 72 d7 9e 3e
       -0.46878228 -0.23442934 -0.8216556 0.31023747
0001d0 4a 25 1c bf 2b a7 88 3e 6a cd 6b 3f c4 f9 40 3f
       -0.609944 0.2669004 0.9211031 0.7538111
0001e0 15 57 4f 3e 30 67 ad bf 74 61 91 be e3 9e 0e bf
       0.20248063 -1.3547115 -0.28394663 -0.5571119
0001f0 58 f3 35 bf ec 47 02 c0 b2 95 a6 3e e3 ec bd 3e
       -0.7107444 -2.0356398 0.32536083 0.37094793
000200 c9 ef 1b 3e c8 12 a3 bf 92 36 8a bf 87 01 00 bf
       0.1522819 -1.2740107 -1.0797904 -0.5000233
000210 2c fa 36 3f 77 0a 2f bf 6d 40 9f bf 52 2f 20 3f
       0.7147548 -0.68375343 -1.2441536 0.62572205
000220 e5 5e 3f bf ec 90 dc bf 17 c2 c9 3e 6f 3c 06 bf
       -0.7475417 -1.7231727 0.3940589 -0.52435964
000230 82 6f 50 be 32 04 9a 3b 3f 36 04 3f 3b 6d d9 be
       -0.20355037 0.004700207 0.5164527 -0.4246615
000240 82 89 6b 3e e9 b6 62 bf 5b d4 18 bf 75 12 26 bd
       0.23001674 -0.8856035 -0.5969903 -0.040544946
000250 a0 7e 8b be 40 40 85 3d ca bd 45 bf 2b 5e 5a bf
       -0.27245045 0.06506395 -0.7724272 -0.8529994
000260 9c 45 b2 bf a6 4f f1 3c 9c c0 c4 be 97 f3 1a 3e
       -1.3927493 0.029456925 -0.384282 0.15131985
000270 74 fd 92 3d fb 25 14 bf 61 b4 5d bf 33 58 24 bf
       0.071772486 -0.57870454 -0.8660336 -0.6419708
000280 3f 92 23 c0 7e 61 c3 3e dd e4 44 3e 7a 13 94 bf
       -2.5558012 0.38160318 0.1922793 -1.1568444
000290 77 4a 31 3e 76 c1 17 bd 46 62 5a 3e 27 31 21 3f
       0.17313562 -0.037049733 0.21326551 0.62965626
0002a0 f0 4d d3 bc a0 e7 c0 3e e7 52 03 c0 72 04 89 3e
       -0.025794 0.37676716 -2.051935 0.26761204
0002b0 45 0d a9 be 09 96 99 3a 09 06 ee bd 77 38 59 bf
       -0.33017936 0.0011717688 -0.11622245 -0.84851784
0002c0 58 be 05 3e b4 db 6d 3c 9c b1 09 3f 1a 29 82 be
       0.13060892 0.014517713 0.53786635 -0.25421983
0002d0 40 0b 0e bf 7c ce 1d be aa 83 a9 3d ba 8e 16 bf
       -0.55485916 -0.15410799 0.08277066 -0.58811533
0002e0 73 bd 43 3f ee 00 4c bf dd 96 0b 3e 4f 3f f1 3c
       0.7646095 -0.7968892 0.13631769 0.029449133
0002f0 22 6f 38 3e 57 c4 9e 3f 50 0d af 3e 4b 3e ae bb
       0.18011144 1.2403668 0.34189844 -0.0053174845
000300 ad b2 4a 3e d0 15 82 3e 73 3b 49 bf 7a 25 29 bf
       0.19794722 0.25407267 -0.7860634 -0.6607281
000310 07 1b 35 be 4c f8 85 3e d7 c7 de 3e 9e ca 88 bf
       -0.17686091 0.26165998 0.4351184 -1.0686834
000320 f0 42 f0 3c f6 56 72 be a6 67 f5 ba df fd 22 3d
       0.029328793 -0.23665985 -0.0018722906 0.03979289
000330 2d 5d b0 bf 4d a2 a7 bf 25 fc 2a 3d 2f 4a 55 3e
       -1.3778435 -1.3096405 0.04174437 0.2082908
000340 65 8f b8 bd 75 ea 03 3f 78 29 b7 bd d0 8c 11 3e
       -0.09011725 0.5152963 -0.089434564 0.14213872
000350 79 51 1c 3f 6e 16 56 bc 86 03 d4 be 6a af 6a bf
       0.6106182 -0.013066871 -0.41408938 -0.9167391
000360 22 d2 f8 3e e4 76 ab be bd 43 9c bf bc 16 3d bf
       0.4859782 -0.33489144 -1.2208172 -0.73862815
000370 fb 50 82 3b f8 20 14 bf ea 86 7d be a2 d5 d0 3e
       0.003976939 -0.57862806 -0.24758497 0.4078799
000380 12 36 75 bf ad ec d8 3f 7a 75 e9 bf 39 30 b2 bd
       -0.9578563 1.6947228 -1.8238976 -0.08700604
000390 ad 22 b5 bf 3f 13 10 3f 9d ff 6d bd 25 6d 4a 3e
       -1.4151207 0.5627937 -0.0581051 0.19768198
0003a0 a5 12 93 bf 80 bd 5c 3e 4b cf 72 3e 37 15 2c bf
       -1.1490065 0.21556664 0.23711888 -0.6721987
0003b0 f9 36 15 3f 84 f5 a1 3e 3b f4 36 c0 ad 68 33 3e
       0.58287007 0.31632626 -2.8586566 0.175204
0003c0 87 88 31 bf 1f 6f 56 c0 d4 ab ba bd fb 26 6f 3e
       -0.6934895 -3.3505323 -0.09114805 0.23354714
0003d0 03 6f 13 bf d8 44 28 3d 56 ea 80 3f 89 ab cb bc
       -0.57591265 0.04108128 1.0071514 -0.024862068
0003e0 40 5d a9 bf 30 08 30 bb 72 0f 3b c0 02 39 23 3e
       -1.3231583 -0.002686035 -2.9228177 0.15939716
0003f0 0c 0f 62 3f 54 9c bf bd f0 4d a0 3e c9 ec 2f c0
       0.8830421 -0.09355989 0.31309462 -2.7488272

fc2.bias f4 [20]
000000 86 33 03 3c 69 e4 dd bd f4 eb 1a 3e 03 2d 21 bd
       0.00800789 -0.108345814 0.15129071 -0.039349567
000010 86 5a c3 3d d7 3e a2 bd 1e f6 6a bd 0c ad 10 3d
       0.0953875 -0.07922142 -0.057363622 0.03532128
000020 56 1b db 3d 0e 8d 32 3e 5b 30 44 3e c2 f5 1e be
       0.10698573 0.1743662 0.19159071 -0.15523437
000030 e6 6f 9a bd 24 87 2f 3e bd c1 a7 bd 2e 1e 2d 3e
       -0.07540874 0.17141396 -0.081912495 0.16906044
000040 a0 ae 49 3d e9 fd ce 3d 86 8d e6 3b de bf 70 bb
       0.0492388 0.10107023 0.007035914 -0.0036735456
