ARK/CLIP_2fc+Lsim/best_text_epoch_41_VitL-14.pth (torch, 697832 bytes, 4 tensors)

fc1.0.weight f4 [200, 768]
000000 2e 5e d7 3c 2a f2 a9 bc 17 39 06 bc 8c e0 41 bc
       0.026290026 -0.020745356 -0.008192322 -0.011833321
000010 82 f1 13 3c e6 79 b7 bb 43 30 62 bb a9 f9 f0 3c
       0.009029748 -0.005599248 -0.003451363 0.029415922
000020 01 19 7c bc 5c ea 8e 3b 13 0c b6 bb 90 98 7a bc
       -0.015386821 0.004361434 -0.0055556386 -0.015295163
000030 9d fe 65 3b 72 65 10 bd dc 74 62 bc 3d 80 05 bd
       0.0035094388 -0.035252996 -0.013821807 -0.032593
000040 ca 3f db bc e4 2b 0d 3d 0b f6 02 bd 31 a0 73 3b
       -0.026763815 0.034465685 -0.031972926 0.003717434
000050 ac 06 84 bc 4a 6b 13 bd a0 f5 7c 3a 31 22 82 3c
       -0.016116463 -0.03599099 0.0009649638 0.015885444
000060 a2 ad 8e 3a 36 a9 73 3b 6c 74 07 3d f5 d4 39 bc
       0.0010885487 0.0037179715 0.033070013 -0.011342277
000070 99 e2 d1 bb 15 78 00 3d cd 4c f5 bb 8e 90 bc bc
       -0.0064051864 0.03136452 -0.007485962 -0.023018148
000080 5e c0 81 3b 7f 82 11 3d 0b 48 bd 3c 07 d9 7b bc
       0.0039596995 0.03552484 0.023105642 -0.015371568
000090 52 3a fb 3c ef 06 d4 3c 4a 83 2c 3c 18 c1 52 3c
       0.030667458 0.025882212 0.010529349 0.01286342
0000a0 e1 b7 42 3c b3 e1 97 bc 43 c8 e8 bc 0d 7e 87 bb
       0.01188466 -0.018540239 -0.028415805 -0.0041348995
0000b0 28 82 7e 3c b1 d4 ef bb 72 28 cd bc af 7c c3 3b
       0.015533961 -0.007319056 -0.0250437 0.005965791
0000c0 5e 2c ff 3b d9 a5 37 3c b8 07 f6 39 27 42 0e 3d
       0.0077872714 0.011208975 0.00046926527 0.034731057
0000d0 f9 7e 0c 3c 47 0d 06 bd cf 75 0d bc b2 7c 04 3c
       0.0085751945 -0.032727506 -0.008634045 0.00808637
0000e0 b4 84 0d bd 5e 9b ba 3b b3 cf 0e bd ab 8e 00 3d
       -0.034550384 0.0056947907 -0.034866046 0.03138606
0000f0 3c cc 7b 3c 95 90 99 3c e3 a7 00 3d 81 54 d9 3c
       0.0153685175 0.0187457 0.03141011 0.026529552
000100 7d f3 be bc 80 da cb bc cf 89 b5 3c 7e b4 ae 3c
       -0.023309464 -0.024884462 0.022160439 0.0213263
000110 a3 8b bd 3c 17 b7 fb 3c 79 82 3d 3c 08 5c 00 bd
       0.023137873 0.030726952 0.011566752 -0.031337768
000120 50 ec b7 3c 22 58 47 bb 0b 97 c2 3c fb 53 10 bc
       0.02245155 -0.0030417521 0.023753664 -0.008809085
000130 53 64 bd bb 46 b6 a6 bb 08 04 bb 3c 84 4b bc 3b
       -0.005779782 -0.0050876467 0.02282907 0.005746307
000140 94 51 71 bc a6 ec 02 bd 37 77 40 3b 62 e6 99 b7
       -0.014728922 -0.031963967 0.0029367933 -1.8346302e-05
000150 d0 d1 b2 bb 17 9b e0 bc 4e cd 82 3c f0 53 86 bc
       -0.0054571405 -0.027417703 0.015967038 -0.016397446
000160 eb 47 d8 bc 25 53 ec 3c b4 72 80 3c 8f 3b 0c bd
       -0.02640148 0.02884824 0.015679695 -0.034236487
000170 37 2a 86 3c 5b 00 da 3c eb 17 92 3b 0f 10 98 bc
       0.016377551 0.026611498 0.0044584177 -0.018562345
000180 de bc 9b bc f3 e8 e1 3c 13 9c 71 3c 58 c7 0f 3d
       -0.019010957 0.0275769 0.014746684 0.03510222
000190 42 e7 c2 bc 05 3d e3 3b 4f b9 02 bd e8 d3 0e bd
       -0.023791913 0.0069347643 -0.031915005 -0.03487006
0001a0 48 12 4f 3c 97 56 6c bc cb 8f 84 bc ae bc da 3c
       0.012638636 -0.0144249415 -0.016181847 0.026701298
0001b0 27 6a 9a 3c 3c a6 27 3c 98 64 bc bc 84 00 a7 bc
       0.018849446 0.010232504 -0.022997186 -0.020385988
0001c0 39 8e 0d 3d 36 e6 b2 3c 33 9f 04 3d 05 ab 77 bc
       0.034559462 0.021838289 0.032378387 -0.015116458
0001d0 b7 54 86 3b 85 73 79 bc 1c 3c 0d bc 2d 17 0e bd
       0.0040994543 -0.015225296 -0.008620288 -0.03469007
0001e0 d0 83 05 3d 6f 45 c7 3c 9e 5b a5 3c 8d 49 42 bc
       0.03259641 0.0243251 0.020185288 -0.011858356
0001f0 8c a4 03 bc 27 bb f3 3c cf b8 0c 3d c1 a6 d8 3c
       -0.0080348365 0.029752327 0.034355935 0.026446702
000200 c9 01 e3 bc 15 00 bf 3a fd ad 22 3c 68 1f 9d bc
       -0.027710812 0.0014572168 0.009929177 -0.019180015
000210 5d cb 28 bc 5c cc 2c 3c db 44 53 3c d4 80 09 3d
       -0.010302392 0.01054677 0.012894834 0.033570126
000220 6e ee db bc d0 c5 af bb 54 eb 6a bb ce 87 4b bc
       -0.02684709 -0.0053641573 -0.0035845833 -0.012422515
000230 7f f8 8b bc cd f6 a8 3c fd 3b 93 3b 53 8a b7 bc
       -0.017086266 0.020625496 0.004493235 -0.022404825
000240 5f 18 c7 3c 74 b3 05 3d 77 11 f3 3c 52 dd 7b 3a
       0.024303613 0.032641843 0.029671414 0.00096078694
000250 28 22 d8 3c c6 72 d2 bc 46 8f 7d 3c 50 0c fc 3c
       0.026383474 -0.025689494 0.015476054 0.03076759
000260 51 94 8e bc 6b c1 69 3b bc 49 ea bc 19 66 9e 3c
       -0.017404707 0.0035668265 -0.028599612 0.019335793
000270 6a 83 c5 3c 04 6b 0b 3c 54 33 86 3c 54 d5 ba bc
       0.024110515 0.008509401 0.016381897 -0.0228068
000280 e5 f8 7e 3c f6 f4 82 3c 86 00 f2 bc df 73 e7 bb
       0.015562271 0.015985947 -0.029541265 -0.0070633735
000290 98 de d5 bc 15 96 13 bd c8 4c c0 3c de be bc bc
       -0.026107118 -0.0360318 0.023474112 -0.023040231
0002a0 ad e3 a4 bc a6 ef 44 3c b0 ea 01 3d c4 ab 03 3d
       -0.020128096 0.012020027 0.031717956 0.03214623
0002b0 1d 97 f0 3c 58 5a 3c bb 0a ef 16 bc fc 89 c8 bc
       0.029368931 -0.0028740373 -0.009212265 -0.024479859
0002c0 23 b3 2a 3b d3 62 0a 3d 3c 2f f2 bc e5 26 13 bd
       0.0026046715 0.033785652 -0.029563539 -0.035925765
0002d0 a1 6e dd 3c c8 57 53 3a 0b 70 e3 3a 82 93 b8 3c
       0.027030291 0.00080620917 0.0017352117 0.022531275
0002e0 a1 58 09 3d 77 59 f5 bc 0c 30 9b bb 0e fc aa bc
       0.03353179 -0.029949887 -0.0047359522 -0.020872142
0002f0 04 c8 ca 3b d3 46 88 ba 16 a8 07 bd 6b e0 0b 3d
       0.0061883945 -0.0010397084 -0.033119284 0.03414957
000300 0c 3c 66 3c fe 1f f5 bc 63 99 0d 3c 61 bc a5 bc
       0.014052402 -0.029922482 0.008642527 -0.020231428
000310 c9 52 12 3d 6b 77 48 3c 2a ea 5a 3c 84 f1 cc 3b
       0.03572348 0.012235503 0.013361493 0.006254377
000320 34 8e c0 bc 51 49 59 3b 49 0a a5 bc ff c5 b3 bc
       -0.023505308 0.0033155272 -0.020146506 -0.021944998
000330 30 d6 a6 3c 28 b8 cb 3c d5 04 de bc 28 d5 91 3c
       0.020365804 0.024868086 -0.027101913 0.017801836
000340 60 19 6c 3c 9d 37 89 bb 37 06 8c 3c bb b8 b7 3c
       0.014410347 -0.004187538 0.017092807 0.022426954
000350 5c 86 bc bc d6 ea fa bc 0f 50 88 bb 26 b2 b1 bb
       -0.023013286 -0.030629557 -0.0041599344 -0.0054228483
000360 40 dc a7 3b 47 c5 f4 3c b7 63 91 3b d9 bd e0 bc
       0.0051226914 0.029879225 0.0044369358 -0.027434276
000370 9f 95 fa bc 8f 6a a9 bc f8 34 dd 3c 9c c6 e5 3b
       -0.030588923 -0.020680694 0.027002797 0.0070122015
000380 ab c4 ae 3c ec 39 07 3c 2d 8e cd 3c 2b 98 81 3b
       0.021334013 0.008253556 0.025092209 0.0039549074
000390 fd 2d 8c bc 29 ff 89 3c b5 73 4e bc 9e 4b dc 3c
       -0.017111773 0.016845303 -0.012600829 0.026891526
0003a0 18 02 a4 bc be ff cf 3c 99 86 00 3d a5 b2 c0 3b
       -0.02002053 0.025390502 0.031378362 0.005880671
0003b0 b9 dc db 3a 34 d0 44 bb 89 f1 f9 bc 94 ad 02 3d
       0.0016774155 -0.0030031325 -0.03051068 0.03190382
0003c0 e4 37 5d 3c d1 79 c4 3c 34 78 01 bd ee 22 81 bb
       0.013502095 0.023983868 -0.031608775 -0.0039409315
0003d0 fd 40 05 bd 77 22 4f bc b2 63 90 b9 32 33 6f bc
       -0.03253268 -0.012642494 -0.000275401 -0.014599608
0003e0 91 07 bc ba 8f 88 89 3c f2 dd e3 3c c2 16 df 3c
       -0.0014345517 0.016788749 0.027815793 0.027232531
0003f0 66 3e 13 bd 8e dc 09 bb 71 25 ce 3c d5 18 9e 3b
       -0.03594818 -0.0021036002 0.025164338 0.0048247376

fc1.0.bias f4 [200]
000000 78 1e 46 bc 11 aa 62 bc 53 1e de 3b 29 e8 ee 3b
       -0.012092225 -0.013834492 0.0067785173 0.0072908592
000010 e7 5a 26 3d 29 d7 8b bc fb 47 a3 bb e4 8f 6c bc
       0.040614035 -0.01707037 -0.004982946 -0.014438603
000020 f9 c2 02 bd ba 32 97 bb e2 38 8e bc 41 a2 ac ba
       -0.03192422 -0.0046142014 -0.017361108 -0.0013170914
000030 58 f4 8f 3d 2d 76 58 bc 25 cd 3a 3c e7 aa 04 bd
       0.07029027 -0.013211769 0.011401449 -0.032389548
000040 29 2b ab bc d9 d5 a8 ba 62 08 09 bd a0 b6 a5 3d
       -0.020894604 -0.0012881114 -0.03345526 0.080914736
000050 58 5a 93 bc b9 c9 21 3c 84 fb bd 3b 20 02 0f bd
       -0.017987415 0.009874755 0.0057978053 -0.034914136
000060 1d de 13 bd 39 91 fe bc 04 a8 25 bd 2f 6d a7 bb
       -0.036100496 -0.031075107 -0.040443435 -0.0051094512
000070 44 5f c0 bc 07 0e 02 bd f5 3b 0e bd 17 7f 11 bd
       -0.023482926 -0.03175166 -0.03472515 -0.035521593
000080 74 fb 32 3d ac 34 ee bc fc 21 07 bd d5 24 ae bc
       0.043696836 -0.02907785 -0.032991394 -0.021257797
000090 93 24 69 bc fa 0b 50 bc b0 2d 07 bc e0 44 0c bd
       -0.014229911 -0.012698168 -0.008250639 -0.03424537
0000a0 32 e2 87 bc bd c3 4e bc fc 82 30 3c 09 c7 c3 bc
       -0.01658735 -0.01261991 0.010773417 -0.023898618
0000b0 e7 b8 55 3d 11 c4 36 3c bf 20 a4 bc cf 4c ec bc
       0.05217829 0.011155144 -0.020035146 -0.028845219
0000c0 58 96 bc bc bc 49 6c 3d 30 7a 16 3d 11 03 2f bb
       -0.023020908 0.057687506 0.03673762 -0.0026704709
0000d0 3e fa ba 3c fc a0 16 bb 2b 84 a4 bc ca df 22 bd
       0.022824403 -0.0022984138 -0.020082554 -0.039764203
0000e0 b1 65 eb bc cb ea 01 bd b8 73 0f 3c 45 e0 08 bc
       -0.028735014 -0.031718057 0.008755617 -0.008354251
0000f0 45 1c e8 3b 51 6c c1 3c 64 df 42 bc 9b 02 6d bc
       0.007083448 0.02361122 -0.011894081 -0.014465953
000100 24 bd 13 3d 4d 0b d1 bc b8 88 b9 39 81 31 43 3d
       0.03606905 -0.025518084 0.00035387813 0.047654632
000110 50 e1 f0 bc fa 0f 46 3d 33 e1 3d 3d a3 57 87 bc
       -0.029404312 0.04835508 0.046357345 -0.01652128
000120 d9 e2 22 bd 33 ca d5 bb d6 ac 94 3c 35 a7 f1 bc
       -0.03976712 -0.006524348 0.01814882 -0.029498676
000130 cc 9b 0c 3c d6 f7 48 3d c0 e5 c5 3c 6d a9 2e bd
       0.008582067 0.04906448 0.024157405 -0.042642046
000140 ac a4 f4 bc ed 66 6f bc 72 dd dd b9 d8 d9 0f bd
       -0.029863678 -0.014611942 -0.00042317394 -0.03511986
000150 79 69 c4 bc 1b 90 df ba ad 41 50 bc 72 17 c9 bc
       -0.023976075 -0.0017056497 -0.012710971 -0.024547312
000160 03 bc ab bc b5 3f e5 bc 46 fb fd bc 40 0c 0e bd
       -0.020963674 -0.02798448 -0.031003606 -0.03467965
000170 f8 63 2c 3c d9 47 a2 bc 95 07 b1 3b ce 00 5f 3d
       0.010521881 -0.01980965 0.005402515 0.054444127
000180 20 c4 a4 3c 9f ca 43 39 3a 22 8f 3c 2c 9c 02 bd
       0.020113051 0.00018672131 0.017472375 -0.03188722
000190 1f ca c5 bb 02 85 14 3b 9e b6 4c 3c b1 35 51 3d
       -0.0060360576 0.0022662287 0.012494711 0.051076595
0001a0 63 1c ed 3a a7 53 a0 bc 3c 03 09 3c 35 3d 80 3b
       0.0018090125 -0.019571139 0.008362588 0.0039135464
0001b0 5d bb fb 3b 34 c4 bc bc 26 9b 48 3d 8f 26 51 3c
       0.0076822476 -0.023042776 0.048976086 0.012765541
0001c0 3b 4a d2 3b 86 8f ec bc b6 67 17 3d a9 14 88 3d
       0.0064175404 -0.028877031 0.03696414 0.066445656
0001d0 8f 3e 60 3d 41 e9 55 3d 3f ed c1 3c e0 2f 3c 3d
       0.05474716 0.0522244 0.023672698 0.045944095
0001e0 b9 a8 d2 bc ed 51 ac bc 40 d9 84 ba 64 ca 13 bd
       -0.025715219 -0.021035159 -0.0010135546 -0.036081687
0001f0 ce 34 11 3b 6b d2 3e 3d 60 94 7a 3d 2c 04 0b 3d
       0.0022156718 0.04658739 0.061176658 0.033939525
000200 dd bb 30 bc 3d 08 a8 bb 21 7a b7 ba f5 f8 08 bd
       -0.010786978 -0.005127935 -0.0013998189 -0.03344055
000210 be c6 b9 bc 95 ab 54 3b 68 e0 46 3d 6e a3 3c 3d
       -0.022677775 0.0032450904 0.048553854 0.046054296
000220 23 ef d2 bc 19 57 a4 bc b8 6e 01 bc b3 e8 11 bd
       -0.025748795 -0.020061063 -0.007899933 -0.03562231
000230 eb c1 a4 3c 76 d7 0b bd 09 64 c3 bb c8 f3 32 3d
       0.020111999 -0.034141026 -0.005962853 0.04368952
000240 f0 3a 10 3d 84 6f 6e bc cd 24 96 3d 75 ac 7b 3d
       0.035212457 -0.014552955 0.07331238 0.061443765
000250 f2 e7 df 3b 2f 91 4b bc 85 f6 c8 bc 68 37 41 3d
       0.00683307 -0.012424751 -0.024531612 0.04717198
000260 81 6c 49 3c ac 1d 34 bc b7 e6 17 bd 46 34 50 3d
       0.012293936 -0.010993402 -0.03708526 0.0508311
000270 9c d8 b5 bc 60 ad f9 bc 28 5a b0 bc 94 25 9c bc
       -0.022198014 -0.03047818 -0.021527365 -0.019060887
000280 d8 87 6b 3c 8f b9 6c 3d 88 04 34 bc c0 6d d6 3b
       0.014375649 0.05779415 -0.010987408 0.006543845
000290 89 97 45 3d 53 15 b6 3c 58 0b dc ba f8 9d 5c 3d
       0.04824022 0.022226965 -0.0016788049 0.05386159
0002a0 a8 ec 4b 3d f1 fd 27 ba 6e 3d 78 3c 55 86 66 3d
       0.04978624 -0.00064083847 0.015151365 0.056280453
0002b0 be c0 f7 bb 77 bb a4 bb de 87 b5 3c 37 2f cf 39
       -0.0075608185 -0.0050272304 0.022159513 0.00039517294
0002c0 2d 27 b5 ba 23 59 00 bd 54 45 06 3d b3 a6 4d bd
       -0.0013820879 -0.031335007 0.03278096 -0.050207805
0002d0 a3 02 0d bd 1d 7f 00 bd 6f c2 92 3b 11 9b d9 3b
       -0.034426343 -0.031371225 0.0044787447 0.0066408
0002e0 39 94 ab bc a6 92 36 3c f4 54 88 3d 2a ba b9 bb
       -0.020944702 0.011143362 0.066568285 -0.0056679444
0002f0 f7 5f b1 bc 17 0b f1 3b 57 fe 53 bb 35 06 9c 3d
       -0.021652205 0.0073560583 -0.0032347643 0.076183714
000300 c0 93 80 3c 08 25 61 3c 8b f8 75 3d c9 e4 3e bc
       0.015695453 0.013741739 0.060051482 -0.011651226
000310 16 c6 35 bc a8 cf 50 3a 96 b1 6d 3c 12 3e 97 bb
       -0.011094591 0.00079655135 0.014507672 -0.0046155537

fc2.weight f4 [100, 200]
000000 22 f9 80 3d 08 f7 8d bd bf 54 82 bc 6a ae b3 3d
       0.06297518 -0.06931883 -0.01590955 0.08773501
000010 0e 28 fe 3a 4a 61 0c 3c 5e c5 75 bc 0b f7 da bc
       0.0019390599 0.008568117 -0.015000669 -0.026729127
000020 98 41 84 bd 89 4d 5a bb c4 2f 79 bd 9e b5 75 bc
       -0.064578235 -0.0033310375 -0.06083657 -0.014996914
000030 d7 a6 8f be 02 df 85 3d 47 09 32 3b 9b 65 35 3d
       -0.28056976 0.06536676 0.0027166174 0.04428635
000040 71 d7 52 3a 9d d8 38 3d 42 82 4d 3d ef 08 f5 3d
       0.00080429675 0.045128454 0.05017305 0.119645946
000050 8e 62 37 bc ef 5e 26 3d f5 81 d9 3c 05 cb 84 3c
       -0.011192931 0.04061788 0.026551226 0.016210089
000060 fc 99 85 3d 89 af f7 bb 44 a1 74 bc e9 86 4a 3d
       0.06523511 -0.007558767 -0.014931027 0.049445067
000070 32 4b 29 bd 1d e6 96 bc 8d bf d3 bc e6 a5 a0 3a
       -0.041331477 -0.018420273 -0.025848174 0.0012256473
000080 74 b0 bd 3b 24 45 80 3d e2 6a 1f 3d 41 3c 24 bd
       0.005788857 0.062631875 0.03892029 -0.040096525
000090 c1 59 84 3d 10 3c 85 3d c1 54 1a be a3 10 d6 bb
       0.06462432 0.06505597 -0.15071394 -0.006532745
0000a0 71 a0 d6 3b 93 44 4f bd e5 aa d5 ba 1e 71 46 bd
       0.006549888 -0.050602507 -0.0016301541 -0.04844772
0000b0 30 ef 00 bd 2a 72 1d 3d ed 00 7e bd d0 a6 a6 3c
       -0.031478107 0.038438953 -0.0620126 0.020343214
0000c0 24 d4 2f 3d 4c be f4 3d ca b4 2a be 65 3a 22 38
       0.042926922 0.11950359 -0.16670528 3.8678194e-05
0000d0 20 7a 19 ba a1 22 63 3a 38 9b af 3c 65 f8 01 3d
       -0.0005854685 0.0008664523 0.021436319 0.031731028
0000e0 3e a6 49 3d 44 d6 e9 bc 11 4d 19 3d bd 36 43 bd
       0.049230807 -0.028544553 0.037427012 -0.047659624
0000f0 11 21 95 3d 4a 2a 2c 3e 27 c0 75 bd 67 34 3b bd
       0.072816975 0.16813007 -0.059997704 -0.04570427
000100 e6 1f b5 bc f9 ac 66 3d fe ab 64 3d 7f cb 0d 3d
       -0.022109937 0.056317303 0.055828087 0.034617897
000110 5e b5 61 3d 6b 8e b3 be 48 57 51 bd 12 b9 68 bd
       0.055104606 -0.35069594 -0.05110863 -0.05681712
000120 c5 48 34 3d 8c 7b 19 be 5e f8 35 3d c4 3b ae bc
       0.04401471 -0.14988536 0.044426315 -0.021268733
000130 4f ea 24 3d ec c3 bc 3d b2 e4 1e bd 0d a6 ac 39
       0.040262517 0.09217057 -0.03879232 0.00032930114
000140 ac 58 80 3c 8a 7a 4f bd 27 73 a0 3d 16 53 8b bc
       0.015667282 -0.05065397 0.078344636 -0.017007392
000150 e5 7e cf bc 8d 85 b5 bc 38 be 24 3c 3f a5 bd 3b
       -0.025329063 -0.022158409 0.010055117 0.005787521
000160 49 fa 09 3d 6b 77 3a 3d 73 aa 79 bd 43 da 88 3d
       0.033685956 0.045524042 -0.06095357 0.06682255
000170 cf b7 1c be 41 70 35 3c 3f 23 03 bd 9b d9 46 3e
       -0.15304492 0.011074127 -0.032016035 0.19418947
000180 47 da 41 bd ab 46 59 bd 6d c5 66 bd 25 db 7e 3d
       -0.047327306 -0.05304591 -0.056340624 0.06222071
000190 93 6d 8a bd e6 c3 33 3d e0 5e d1 bc 88 bf 79 3c
       -0.06759181 0.043887995 -0.025557935 0.0152434185
0001a0 e7 b7 05 3a bf bc b9 3c d2 0c 8c 3d a2 01 98 3d
       0.0005100951 0.022673009 0.06838383 0.074221864
0001b0 66 d6 3b bd 50 c6 51 3d 93 87 da bd fe 26 1d 3d
       -0.045858763 0.051214516 -0.1067039 0.038367264
0001c0 b7 7d c3 3c 28 fa 7a 3d 7e 5f 1e 3e c7 b5 cc bd
       0.023863656 0.061273724 0.15466115 -0.09995609
0001d0 c9 2b ea bc 8b 82 57 bd b8 f7 03 3e 94 05 ec 3c
       -0.028585332 -0.05261473 0.12887466 0.028811254
0001e0 33 b9 2a bd 63 30 5f bd 28 f6 bf 3b 68 7c 84 3d
       -0.041680526 -0.054489505 0.0058582015 0.06469041
0001f0 ac 81 b1 3c 93 4f 3f 3d ec dd 88 bd b6 64 1a 3d
       0.021668278 0.046706747 -0.06682953 0.0376937
000200 b9 16 8a bc d9 45 d6 bc a4 75 a7 3b ac 94 aa bc
       -0.016856538 -0.026156353 0.0051104594 -0.020822845
000210 58 90 f2 3b eb 0e 16 3d fc 48 45 3b 09 92 4a 3e
       0.007402461 0.03663532 0.0030103317 0.1978227
000220 1b 92 de bc 05 e1 a3 bc be 58 1b bc d6 e4 e5 3c
       -0.027169278 -0.020004759 -0.009481607 0.028063219
000230 72 e0 00 bd d8 8e d9 bc 51 67 09 bd ea a7 df bc
       -0.031464048 -0.026557371 -0.033545796 -0.027301747
000240 bf c2 19 3b 36 dc e9 bc 8c 86 1b bc 2e fc 64 be
       0.0023462025 -0.028547388 -0.009492528 -0.22361824
000250 99 dc e4 bb 59 a2 a4 3c a6 a8 39 bd 5c 80 a6 bc
       -0.006984305 0.020096945 -0.04532685 -0.020324878
000260 da 6a 81 3d 0a a9 f5 bb 40 5e d7 bc 72 51 c2 3d
       0.063192084 -0.0074969577 -0.02629006 0.09488191
000270 6a 94 e0 3c bf 82 c2 3a 23 25 5e bd e0 bc 52 3d
       0.02741452 0.0014839991 -0.054234635 0.051449656
000280 3b 0a 29 3d 45 76 81 3d 4b fa ff 3c f6 50 11 bd
       0.041269522 0.06321386 0.031247279 -0.0354776
000290 97 5f 00 3d 54 c1 31 3e 71 7b 79 3b c3 d8 cd 3d
       0.03134116 0.17358905 0.0038067962 0.1005111
0002a0 5e 5a 45 bc a7 52 4d 3d 80 ec d7 3c 10 cf 71 bd
       -0.012045471 0.05012765 0.02635789 -0.05903536
0002b0 e2 0a 57 3c ad 87 92 bb fd c7 ad bc f1 e4 08 bd
       0.013125153 -0.00447174 -0.021213526 -0.03342146
0002c0 cb fc 68 3d 29 4c 58 39 cf 38 c2 3c fd bc 01 bd
       0.056881707 0.00020627737 0.02370873 -0.031674374
0002d0 5c 0a 26 bd 7d 95 80 bc 1d 90 d8 3b 7c 4e 96 3d
       -0.040537223 -0.015696282 0.0066089765 0.073391885
0002e0 2b 15 be bc 27 3d d3 3c d7 e2 5f 3d 72 3f 65 3d
       -0.023203453 0.025785996 0.05465969 0.05596871
0002f0 69 a3 46 3c cc 01 c8 3c 00 04 16 3d d9 70 5e 3e
       0.012123921 0.02441492 0.03662491 0.21722735
000300 57 ca b2 bb 9d 34 18 bd 33 73 38 be 5c fe ca 3c
       -0.0054562497 -0.03715955 -0.18012695 0.024779491
000310 b3 26 1e 3d 9c 97 1e bc 92 d4 83 3c 0b 7c 16 3d
       0.038611125 -0.009679701 0.016092572 0.03673939
000320 be be 88 3d 76 a3 c6 bc 9d b6 00 3d 1a b0 5e 3d
       0.06677006 -0.024247866 0.031424154 0.054367162
000330 95 e5 f5 bc 48 de 85 bd a5 75 29 3d 94 6c 80 bb
       -0.0300167 -0.065365374 0.04137196 -0.0039191935
000340 07 68 20 bd a4 2d 51 bd 54 60 56 3d 38 52 ce bb
       -0.03916171 -0.051068917 0.05233796 -0.0062964223
000350 16 0d 88 be 32 57 89 bc 0d 82 de 3c 2a 94 2c 3d
       -0.26572484 -0.01676521 0.027161622 0.042133488
000360 64 91 01 3d b3 80 53 bc 42 5b 45 bd 34 a1 1a 3e
       0.031632796 -0.012909102 -0.048182733 0.15100557
000370 b7 e0 47 bd 6b b1 54 bd 62 b3 5c 3d c5 ad 03 3c
       -0.04879829 -0.05192701 0.05388201 0.008037035
000380 56 8c 3e bc 2e 0f 1a bd 42 91 f8 bc f9 c7 e1 3b
       -0.011630138 -0.037612133 -0.030342702 0.0068902937
000390 8e 3f f3 bc d2 7f 1f bd c1 0a 30 3d 2a 17 c7 bc
       -0.029693391 -0.03894026 0.042979006 -0.024303038
0003a0 3a 6c a8 bd 8c d5 39 bd 59 70 71 bd 92 25 85 3c
       -0.082237676 -0.04536967 -0.058945034 0.016253266
0003b0 76 d1 11 3d 88 8f 0a 3b 85 ac 73 3b 15 c6 d4 3c
       0.03560015 0.002114268 0.0037181687 0.02597336
0003c0 ba b4 86 3c 8e 24 23 3d 52 b1 3d 3c eb 26 8c 3d
       0.016443599 0.039829783 0.011577921 0.068433605
0003d0 92 19 0b be 43 54 8b 3c e9 7b 19 3c 1b da d6 3c
       -0.13583973 0.017007953 0.009367921 0.026227048
0003e0 a3 3f 27 bc df f7 e9 3d e0 19 a3 bc da e3 d3 bc
       -0.010208043 0.11424231 -0.0199098 -0.025865484
0003f0 26 9a 57 bc 06 50 79 3c d6 7c 1c 3d c2 32 32 3d
       -0.01315931 0.015216833 0.03820499 0.043505438

fc2.bias f4 [100]
000000 b1 d5 03 3e b2 ee 78 3c 5e 4f b9 3d 4a 01 e2 3d
       0.12874486 0.015193628 0.09048341 0.11035402
000010 02 36 1e 3d 81 5a 4e bd fa 13 d0 3d 8d c1 9f 3d
       0.038625725 -0.05037928 0.1016006 0.07800589
000020 34 9b 12 bd 12 6a ec bd 49 a0 0f bd 63 1c 2e 3d
       -0.035792544 -0.11543669 -0.03506497 0.04250754
000030 ca 7c 5a bd 3e 64 df 3b 57 99 14 bd 38 5f fd bd
       -0.053341664 0.0068173697 -0.03627905 -0.12371677
000040 84 14 81 3d 3c 53 57 be df 0b bf bd 46 06 30 3e
       0.06302741 -0.21027845 -0.09328436 0.17189893
000050 09 ef 50 3e 2c 1e 91 3d 5c 45 82 3d 76 a2 88 bd
       0.20403685 0.07085833 0.063608855 -0.06671612
000060 96 2a 43 bd 43 09 c7 bd 7a ec c7 3c 7f cc 04 3e
       -0.047648035 -0.097185634 0.024404753 0.12968634
000070 da a4 2c 3d 3c 2c 49 bc e6 29 00 be 5f 64 8f bd
       0.042149402 -0.012278613 -0.12515983 -0.07001566
000080 1b 6a 2d 3e d6 3d b0 bd ec 65 e6 bc c7 db aa 3d
       0.16935007 -0.08605544 -0.028124772 0.083427005
000090 98 0e a5 3d 3e 8f 00 be 99 8c 0c be 7b 26 e1 bb
       0.08059424 -0.12554643 -0.13725509 -0.0068710423
0000a0 78 89 3d be cd 50 11 be c5 16 3b bd b4 36 38 3e
       -0.18509471 -0.1419098 -0.04567601 0.17989618
0000b0 7a ba 3e be a2 1e c3 bd a5 f4 6c bd 0d 11 01 3e
       -0.18625823 -0.09527327 -0.0578505 0.1260416
0000c0 4d 6d 1d 3e 39 53 9c 3d 61 9b 63 bc e9 85 e7 bd
       0.15373726 0.07633061 -0.013892026 -0.11304838
0000d0 24 89 16 3e ae 3f 8e 3d 05 14 97 3d 49 9e 12 3e
       0.14700752 0.0694574 0.07376865 0.14318193
0000e0 68 d9 90 3d aa fd 84 3c 1a 28 06 bc ac f9 c0 3c
       0.07072717 0.016234238 -0.008188272 0.023556553
0000f0 06 a8 5b be 5c ac 96 3d 8f d5 aa bd 0d 4e c0 3c
       -0.21450815 0.07357094 -0.08341514 0.023474718
000100 e5 6e bd bd c7 cc d1 3d 8a 4d ca 3d da 32 e2 bd
       -0.09249667 0.10244136 0.09878071 -0.110448554
000110 87 22 70 be 4e 46 87 bd 71 43 66 3c f2 a2 c7 bd
       -0.23450671 -0.066052064 0.014054165 -0.09747876
000120 08 75 79 bd 6f 38 2d be 08 6f 71 3d 68 c7 73 3d
       -0.060902625 -0.16916059 0.05894378 0.05951634
000130 b9 70 3e bd 52 77 e1 bd 13 ba d4 3c b4 c6 ac bd
       -0.04649422 -0.11009087 0.025967633 -0.08436337
000140 ef 19 d3 3c 50 be ca 3d 99 8b 29 be 7b 77 ac bd
       0.025769202 0.098995805 -0.16557159 -0.084212266
000150 23 6a 6d 3d cb b7 fe 3c d5 b2 fd bd 26 7a ff bd
       0.057962548 0.031093499 -0.12387625 -0.1247447
000160 5c 43 51 3d 7b 17 aa 3c 02 66 56 be 23 4d 7c 3d
       0.05108963 0.02076315 -0.2093735 0.061597
000170 bf 94 b2 3c 6e 73 25 3e 3b 67 e2 bd ef 93 d0 bd
       0.021799443 0.16157314 -0.11054846 -0.10184466
000180 af 90 ce 3a 27 c2 86 bd 42 4a 4c bd cc f5 d1 3d
       0.0015759672 -0.0658 -0.049875505 0.1025196
