ARK/CLIP_2fc+Lsim/best_text_epoch_40.pth (torch, 697832 bytes, 4 tensors)

fc1.0.weight f4 [200, 768]
-0.016263435 0.008950414 -0.012142485 0.02577547 0.010831424 -0.024494622 -0.016519763 0.022912337
0.025912566 0.015703492 -0.03078623 -0.0155861825 -0.020626202 -0.010773615 -0.008822403 0.00044844125
0.028676348 -0.00981035 0.025719961 0.019105047 -0.0027035093 -0.026018862 0.035801347 -0.025721153
-0.015907083 -0.0054334 0.02677482 0.03365515 -0.035168804 0.018207137 -0.014220216 0.017098693
-0.035884775 0.020882238 0.0049932483 -0.0022537173 0.0010365079 -0.003066551 -0.01463504 0.0035628905
0.03593758 0.028825583 -0.03457375 -0.034244385 -0.017877027 0.008837377 0.030914782 0.022936245
0.013997626 0.0027970774 0.016943285 -0.022625502 -0.020910494 0.006809153 0.012205926 0.0018077838
0.0057287 0.014633625 0.0073834937 0.0082514305 0.01876202 -0.010865269 0.0054324926 -0.008327495
-0.01046513 0.014319819 -0.0021515072 0.013677023 -0.024610095 0.0076831984 -0.0009556552 0.025045274
0.02487847 0.0019460586 -0.0086859 -0.023968972 0.0351042 -0.0344795 -0.016652092 0.028819377
-0.027876776 0.0014444626 0.008261841 0.034137834 -0.00048862246 -0.018395482 -0.031672154 0.014247247
0.027426705 0.021089423 -0.02670911 0.01921709 -0.018408054 -0.0032806327 0.02772031 -0.023559408
0.010280278 -0.011428107 0.014048143 -0.006880504 -0.008094289 0.03548055 0.017471546 -0.01700232
0.0029336403 0.013313001 -0.0331533 0.02401355 0.03483941 -0.029284855 0.030613959 0.0101852035
-0.015321743 0.0075199874 0.019007836 0.009658921 -0.023585614 0.016144138 -0.03240015 -0.025478104
0.014228737 -0.021511294 0.026442092 -0.010551811 -0.006023338 -0.03146871 -0.03137256 -0.0034879309
0.034906074 0.014932982 0.010514853 0.034674123 -0.025696363 0.02954811 0.016725263 0.019925911
0.018561294 -0.0057572196 0.02990193 0.008764796 -0.0023672492 0.017137054 0.02153615 -0.026610916
-0.033952072 -0.0043379776 -0.01736907 0.03524414 0.016248422 0.03094646 -0.031431433 0.016300784
0.0071912985 0.014627667 -0.034416597 0.006177348 0.003437245 -0.0345157 0.011500533 0.0013211101
0.011845933 0.030910674 0.03327761 -0.0096285865 0.004520206 -0.0006301922 -0.016670456 0.02001923
0.015283226 0.010808509 0.020461494 -0.02126606 -0.013167048 -0.01906841 0.0053817895 -0.02952888
0.031287916 0.0186243 -0.017605605 0.004592576 -0.022776445 -0.0067603257 -0.012055301 0.020858716
0.0261674 0.008109611 -0.029786354 -0.020356188 -0.024903953 0.006711688 0.009587811 0.011252585
-0.01585822 -0.02208686 -0.017027685 -0.004831465 -0.010314454 0.008760877 0.0018356754 -0.027853612
0.029331064 -0.02907699 0.011006344 -0.031745996 -0.011924476 -0.035937525 -0.022509221 0.03384376
-0.0023627412 -0.03399673 -0.013725072 0.011770617 -0.027315134 -0.0343309 0.033997796 -0.002524064
0.02688088 0.026618969 0.0037471794 -0.034261655 0.0021842208 0.017909272 -0.012519408 -0.01309679
0.031021336 -0.012200299 0.008120176 0.028079804 0.02456726 -0.008550705 0.013186805 -0.018957773
0.03163163 0.0017115357 0.0151358405 -0.022968076 -0.025115862 0.035434403 -0.011778316 -0.027849965
0.03317505 0.0043181344 0.008470726 0.008196443 0.0006300589 -0.010661606 0.021636311 0.020324605
0.023867948 -0.0063877907 0.01428274 0.0008079771 -0.020764658 0.029895011 0.01989663 -0.004951488
00000000: e53a 85bc c2a4 123c 46f1 46bc 1427 d33c
00000010: 4976 313c f2a8 c8bc 7454 87bc a7b2 bb3c
00000020: 9746 d43c 9ca4 803c 6733 fcbc 305d 7fbc
00000030: 48f8 a8bc d183 30bc d78b 10bc c41c eb39
00000040: a9ea ea3c 97bb 20bc abb2 d23c 3082 9c3c
00000050: 5c2d 31bb 8225 d5bc 6fa4 123d 2bb5 d2bc
00000060: 924f 82bc aa0a b2bb de56 db3c fcd9 093d
00000070: 2a0d 10bd 2227 953c e9fb 68bc 8f12 8c3c
00000080: eafb 12bd 3a11 ab3c 679e a33b 1ab3 13bb
00000090: 6fdb 873a 30f8 48bb cfc7 6fbc 627f 693b
000000a0: 4933 133d a123 ec3c 349d 0dbd d743 0cbd
000000b0: d872 92bc a5ca 103c ff40 fd3c cbe4 bb3c
000000c0: 4c56 653c 2c4f 373b a5cc 8a3c 1e59 b9bc
000000d0: 7c4c abbc 511f df3b 5dfb 473c 29f3 ec3a
000000e0: d2b7 bb3b dfc1 6f3c 3cf1 f13b 0231 073c
000000f0: cfb2 993c 3e04 32bc 0d03 b23b 0c70 08bc
00000100: f075 2bbc ad9d 6a3c 4d00 0dbb 9815 603c
00000110: 1c9b c9bc 57c3 fb3b ef84 7aba bf2b cd3c
00000120: efcd cb3c e412 ff3a 4e4f 0ebc 945a c4bc
00000130: 6cc9 0f3d 603a 0dbd f869 88bc 9d16 ec3c
00000140: d65d e4bc 1f54 bd3a ac5c 073c 1dd4 0b3d
00000150: e616 00ba 1fb2 96bc a9ba 01bd 496d 693c
00000160: f8ad e03c bac3 ac3c 10cd dabc 296d 9d3c
00000170: 7dcc 96bc e2ff 56bb b415 e33c a9ff c0bc
00000180: 9c6e 283c f43c 3bbc 2f2a 663c da75 e1bb
00000190: e99d 04bc 0e54 113d 7d20 8f3c 7348 8bbc
000001a0: 5142 403b c61e 5a3c c1cb 07bd 10b8 c43c
000001b0: c5b3 0e3d cbe6 efbc 20ca fa3c d7df 263c
000001c0: 0c08 7bbc 3a6a f63b 52b6 9b3c 7340 1e3c
000001d0: 9e36 c1bc b640 843c 05b6 04bd 75b7 d0bc
000001e0: a61f 693c 7438 b0bc 169d d83c 81e1 2cbc
000001f0: 6c5f c5bb 56e5 00bd 8380 00bd c595 64bb
00000200: acf9 0e3d 77a9 743c 7d46 2c3c 7406 0e3d
00000210: 2e81 d2bc e10e f23c 6b03 893c aa3b a33c
00000220: db0d 983c 0fa7 bcbb e4f4 f43c 389a 0f3c
00000230: da23 1bbb 0263 8c3c 946c b03c 23ff d9bc
00000240: 5411 0bbd 9825 8ebb 9449 8ebc 295c 103d
00000250: 691b 853c 6e83 fd3c 3fbe 00bd 3989 853c
00000260: fca4 eb3b e2a8 6f3c 6bf8 0cbd 5a6b ca3b
00000270: 6743 613b 5660 0dbd bb6c 3c3c 1929 ad3a
00000280: 7215 423c 6238 fd3c 1a4e 083d 38c1 1dbc
00000290: 3c1e 943b 7c33 25ba 7b90 88bc 5eff a33c
000002a0: 7f66 7a3c 2c16 313c dd9e a73c 2936 aebc
000002b0: 9aba 57bc 5b35 9cbc b959 b03b 8de6 f1bc
000002c0: c227 003d fd91 983c a139 90bc 527d 963b
000002d0: ab95 babc b985 ddbb 9983 45bc e6df aa3c
000002e0: 045d d63c 2dde 043c 8302 f4bc 05c2 a6bc
000002f0: 6003 ccbc b8ed db3b 3216 1d3c c35c 383c
00000300: 19e9 81bc 81ef b4bc a57d 8bbc 4451 9ebb
00000310: f5fd 28bc c889 0f3c 0c9b f03a 422d e4bc
00000320: b347 f03c de32 eebc f453 343c 1708 02bd
00000330: e15e 43bc 3a33 13bd 4265 b8bc c19f 0a3d
00000340: 38d8 1abb 2840 0bbd 20df 60bc 8cd9 403c
00000350: fdc3 dfbc 8f9e 0cbd 4641 0b3d c46a 25bb
00000360: 4b35 dc3c 0610 da3c 3d93 753b f355 0cbd
00000370: 2525 0f3b 77b6 923c 341e 4dbc eb93 56bc
00000380: 7520 fe3c c3e3 47bc 7d0a 053c 9e07 e63c
00000390: 4741 c93c 4218 0cbc 780d 583c 554d 9bbc
000003a0: 2b90 013d 9c55 e03a 51fc 773c 8c27 bcbc
000003b0: c8bf cdbc aa23 113d d7f9 40bc 9c25 e4bc
000003c0: 90e2 073d 237f 8d3b cdc8 0a3c 604a 063c
000003d0: 892a 253a 04ae 2ebc a23e b13c c97f a63c
000003e0: b786 c33c ac50 d1bb 2702 6a3c 6dce 533a
000003f0: a51a aabc 62e6 f43c 42fe a23c 1840 a2bb

fc1.0.bias f4 [200]
-0.019046037 0.010271851 0.0076042423 -0.022376992 -0.008418136 0.010618599 0.017828261 -0.0048938557
0.0019165145 -0.030759206 0.012156621 -0.0202713 -0.0054928935 -0.019206224 -0.00044625174 0.014501453
0.05632992 0.04886121 0.001952903 0.020574247 0.011289924 -0.024864411 0.020304168 -0.020622764
-0.025204407 0.0077570034 -0.00043773456 -0.018702425 0.007544305 -0.00957897 -0.021795802 -0.033320013
-0.007132829 0.047180925 0.032643005 -0.018918335 -0.020838315 0.038369417 -0.029458081 -0.021286126
-0.029359028 0.024037689 -0.024604984 0.00067369855 -0.019457404 -0.035496484 0.046596527 -0.020794619
-0.026945228 -0.007668044 -0.0048973267 -0.02601016 -0.013530863 -0.018994538 -0.02825447 0.03895919
0.00031733268 -0.009394593 -0.010817853 0.026589394 0.009514381 0.0013697735 0.052577686 -0.038149692
-0.03391711 0.041558705 -0.030932127 -0.003026799 0.012279805 0.008113422 0.01451521 -0.027882462
-0.017471625 0.03349357 0.044362135 0.00709428 0.012159287 -0.027653705 -0.009154022 -0.0012056753
-0.027616741 -0.024647001 0.0251191 -0.018751757 0.005696641 0.053509407 0.05413311 -0.026462438
-0.018745031 -0.0321017 -0.019318331 0.023196876 0.015920859 0.009583669 -0.041630406 -0.020236608
0.03794704 -0.020515606 0.018469898 0.00866899 0.030079097 -0.014500533 -0.025611622 -0.035983022
0.0020719084 -0.0081163095 0.046470415 0.008178045 -0.014120938 0.040692117 -0.031511936 0.006753763
0.01977314 0.02454301 -0.019929979 -0.018214041 0.041708007 0.03503099 0.059493184 -0.014429575
0.004097287 0.017296053 0.04157467 0.00698207 -0.029812666 0.046752304 -0.029661935 0.00875963
-0.021125248 -0.00801117 -0.0039009212 -0.016998103 0.047426518 0.015296696 0.0008082551 -0.01353449
-0.022880303 -0.03444597 -0.0319061 0.006948151 0.028789895 -0.031906914 0.020930497 -0.01287389
-0.04044777 -0.035059784 0.00643414 -0.03101423 0.013901111 0.019539196 0.033545196 -0.028837917
-0.029081391 -0.0056975395 -0.034664966 -0.03856251 -0.0065134317 0.003013917 0.062361933 -0.03336139
0.019010944 -0.010143242 -0.030507166 0.01319433 0.022387492 0.02549422 0.010546803 -0.011599314
0.037701067 -0.01400908 -0.028206859 0.014773567 0.0089176735 0.022539305 0.051315557 0.008458701
-0.011240593 0.023385664 -0.03424789 -0.00998233 0.028100977 -0.04052514 -0.018586997 0.010466227
0.008651486 -0.0059632673 -0.011649384 0.00985968 -0.013423907 -0.038462132 -0.034662236 0.032009304
-0.032229684 0.052472703 -0.0053542824 -0.01003203 0.071849845 0.061812297 -0.014661452 0.036633983
00000000: 6f06 9cbc 444b 283c 022d f93b f44f b7bc
00000010: 39ec 09bc a2f9 2d3c 930c 923c a35c a0bb
00000020: 8e33 fb3a bbfa fbbc 902c 473c ff0f a6bc
00000030: bbfd b3bb 5f56 9dbc e5f6 e9b9 8197 6d3c
00000040: 34ba 663d b122 483d 8df8 ff3a 538b a83c
00000050: 60f9 383c 73b0 cbbc ed54 a63c 12f1 a8bc
00000060: 7979 cebc 762e fe3b bd7f e5b9 d435 99bc
00000070: 3836 f73b 1df1 1cbc 1c8d b2bc 917a 08bd
00000080: 82ba e9bb c940 413d acb4 053d a0fa 9abc
00000090: 1db5 aabc 4029 1d3d 1352 f1bc 3e60 aebc
000000a0: 5882 f0bc b0ea c43c 6490 c9bc 259b 303a
000000b0: 2265 9fbc c364 11bd 00dc 3e3d 7a59 aabc
000000c0: 3dbc dcbc 3744 fbbb c179 a0bb 4213 d5bc
000000d0: 8eb0 5dbc 6f9a 9bbc eb75 e7bc ac93 1f3d
000000e0: ac5f a639 c7eb 19bc 5d3d 31bc 00d2 d93c
000000f0: 35e2 1b3c f989 b33a b35b 573d da42 1cbd
00000100: abec 0abd 7639 2a3d 5f65 fdbc 435d 46bb
00000110: 3c31 493c 29ee 043c 34d1 6d3c c369 e4bc
00000120: a720 8fbc 8e30 093d 12b5 353d 2277 e83b
00000130: bf37 473c 068a e2bc c0fa 15bc c007 9eba
00000140: 813c e2bc 82e8 c9bc 92c6 cd3c 499d 99bc
00000150: e3aa ba3b ae2c 5b3d aeba 5d3d c1c7 d8bc
00000160: 2e8f 99bc 127d 03bd 7a41 9ebc 6007 be3c
00000170: 766c 823c d204 1d3c a584 2abd 3ec7 a5bc
00000180: 5b6e 1b3d 5810 a8bc 2f4e 973c 6108 0e3c
00000190: 7068 f63c a593 6dbc 77cf d1bc ef62 13bd
000001a0: dbc8 073b 45fa 04bc c357 3e3d 35fd 053c
000001b0: 825b 67bc c7ac 263d a912 01bd ac4e dd3b
000001c0: 48fb a13c 6c0e c93c 3244 a3bc 9d35 95bc
000001d0: 04d6 2a3d a87c 0f3d 20af 733d 066a 6cbc
000001e0: 8942 863b 74b0 8d3c 334a 2a3d d9c9 e43b
000001f0: b139 f4bc 587f 3f3d 96fd f2bc 8d84 0f3c
00000200: db0e adbc 4841 03bc 99a6 7fbb 9b3f 8bbc
00000210: 4f42 423d fe9e 7a3c 15e1 533a c4bf 5dbc
00000220: 796f bbbc 3817 0dbd f9af 02bd 51ad e33b
00000230: c9d8 eb3c d3b0 02bd 6f76 ab3c 02ed 52bc
00000240: 90ac 25bd d99a 0fbd 7ad5 d23b 8e11 febc
00000250: 7cc1 633c aa10 a03c b066 093d 7f3d ecbc
00000260: 193c eebc 6db2 babb dafc 0dbd b9f3 1dbd
00000270: a06e d5bb 2385 453b 3a6f 7f3d f4a5 08bd
00000280: d7bc 9b3c d72f 26bc 2aea f9bc 082d 583c
00000290: f965 b73c 41d9 d03c 7fcc 2c3c 0d0b 3ebc
000002a0: 6f6c 1a3d 5786 65bc 1212 e7bc d50c 723c
000002b0: 6f1b 123c 59a4 b83c 4330 523d 5d96 0a3c
000002c0: 772a 38bc 4b93 bf3c 8447 0cbd ed8c 23bc
000002d0: 0534 e63c b0fd 25bd c243 98bc 8a7a 2b3c
000002e0: f6be 0d3c 8367 c3bb 0fdd 3ebc 7f8a 213c
000002f0: f2ef 5bbc 788a 1dbd fdf9 0dbd 301c 033d
00000300: 4603 04bd 9eed 563d fa72 afbb 625d 24bc
00000310: 0326 933d e42e 7d3d 9636 70bc 840d 163d

fc2.weight f4 [100, 200]
-0.027933685 0.067016736 0.029664345 0.06302963 -0.054555852 0.020216873 -0.007493226 0.058003675
0.06099584 -0.037856393 0.1121464 0.07029408 0.02972091 -0.033492997 -0.036032118 -0.051748935
-0.012814437 -0.021971673 0.026931114 0.03802448 -0.037525732 0.06311398 0.038686227 -0.042409208
0.06262717 -0.04296766 0.013134644 0.0036088661 -0.009597921 -0.034825027 0.018743733 -0.009961113
-0.07455559 -0.0422508 -0.027377589 0.06351455 0.049578562 -0.01068098 0.049934432 -0.03652727
0.050756507 0.0060177506 0.05677277 0.06079753 -0.018393265 0.05179943 -0.064104706 -0.046930745
-0.031120079 -0.051612046 0.06480457 -0.024518391 -0.052520726 0.059888422 0.03557748 0.12018411
0.04527253 0.0059345257 -0.019614326 -0.031240646 -0.037975196 0.059286144 0.11007678 1.9022275e-05
-0.028924398 -0.02021508 0.052217167 0.05064357 0.061434664 -0.0579291 0.021852171 0.010226858
-0.010906013 0.036562998 0.12837206 0.13243206 0.058313552 0.029334087 -0.036925018 0.04478658
0.016219996 0.039372686 0.06444861 -0.058014683 -0.023661645 -0.062435027 0.08664355 0.038528163
-0.025080556 0.018051015 0.020391854 -0.0055625243 -0.06423225 0.02839934 0.009283456 0.04086009
0.10864853 0.023067908 0.006534814 0.019525187 0.01034257 -0.014267429 -0.06510255 0.06465328
-0.034708325 0.03533816 -0.13462186 0.046454556 -0.045573987 -0.124944635 -0.020257993 0.055763338
-0.09081052 0.13162854 -0.019154985 -0.031663027 0.019895134 -0.026014702 -0.06793086 0.055410836
-0.055221077 -0.06163838 -0.08805537 0.015064322 -0.013022972 0.025129156 -0.057086706 -0.032026254
-0.020409275 0.056319747 0.033661436 -0.0191992 0.07759557 -0.026495157 -0.04075064 0.07018419
-0.061648745 -0.06939488 0.036238942 -0.038524397 0.09615955 0.00027490704 -0.038873266 0.032035645
-0.032270547 0.04049729 -0.0115841525 -0.028267996 -0.08749894 -0.06942628 -0.034085207 -0.019457988
-0.03981824 -0.028089484 0.064861685 0.023715658 -0.06631144 -0.18945023 0.13250925 0.064721026
0.05677617 0.027260473 0.061264988 -0.01704791 -0.026270842 0.0057281507 -0.0048527415 -0.0661506
0.040698018 -0.021729894 0.042249765 -0.0010815314 -0.051790483 0.014221246 -0.16522644 -0.18078165
-0.044955246 -0.06641518 -0.065276615 -0.029054556 0.16992903 -0.024910443 0.011697461 -0.02285745
-0.055142924 0.064048365 -0.019433573 0.04226481 0.016638523 -0.012013321 -0.022658812 -0.009479496
-0.025134038 -0.16036648 0.04034266 0.026808284 -0.12535836 0.0039344085 -0.043417316 -0.023764264
0.06835738 0.0554194 -0.055988528 -0.0012301903 -0.055014722 -0.1829009 -0.029339554 -0.0009100329
0.09845281 -0.020686923 0.136779 0.03653244 0.042032275 -0.06451916 0.04834195 -0.041304477
-0.057169657 -0.24580738 -0.009881411 0.12641074 0.021074552 0.012624255 -0.009162824 0.037301105
-0.0406142 0.01636072 -0.0021950332 0.02500904 -0.012798734 0.18259914 0.047532737 0.008303991
0.07260953 -0.022492085 -0.010531087 0.04953401 -0.019784614 -0.033096466 -0.014439655 0.03679136
-0.010482259 -0.038275633 0.0013933749 0.025338223 0.000515751 0.04220841 0.011811336 0.06121641
0.021652194 0.066529535 0.03753665 0.0006347231 -0.012217647 0.052993476 -0.066926524 0.032733113
00000000: 2fd5 e4bc 1240 893d a402 f33c ae15 813d
00000010: f575 5fbd db9d a53c bc89 f5bb 4395 6d3d
00000020: c6d6 793d 4e0f 1bbd 03ad e53d 58f6 8f3d
00000030: 4479 f33c f42f 09bd 6a96 13bd b1f6 53bd
00000040: a5f3 51bc f0fd b3bc a49e dc3c 8fbf 1b3d
00000050: 95b4 19bd e741 813d 7375 1e3d 47b5 2dbd
00000060: ac42 803d dbfe 2fbd b132 573c ba82 6c3b
00000070: 9940 1dbc b0a4 0ebd 758c 993c f033 23bc
00000080: 9ab0 98bd 2d0f 2dbd f746 e0bc eb13 823d
00000090: e412 4b3d 47ff 2ebc 0c88 4c3d 9e9d 15bd
000000a0: 0ee6 4f3d 8d30 c53b 908a 683d d506 793d
000000b0: 79ad 96bc a42b 543d 5449 83bd 743a 40bd
000000c0: 89ef febc 2767 53bd 42b8 843d cbda c8bc
000000d0: f91f 57bd 904d 753d b1b9 113d 1623 f63d
000000e0: b06f 393d 6976 c23b 39ae a0bc 62ec ffbc
000000f0: e18b 1bbd 07d6 723d ef6f e13d 0692 9f37
00000100: dcf2 ecbc 189a a5bc abe1 553d a26f 4f3d
00000110: eaa2 7b3d 1047 6dbd 5303 b33c 8d8e 273c
00000120: 22af 32bc 15c3 153d f773 033e 459c 073e
00000130: 31da 6e3d 0a4e f03c b03e 17bd 2272 373d
00000140: ccdf 843c 4145 213d a2fd 833d cea0 6dbd
00000150: 11d6 c1bc dfbb 7fbd 2c72 b13d b5cf 1d3d
00000160: bd75 cdbc b9df 933c d10c a73c d645 b6bb
00000170: 338c 83bd bca5 e83c a319 183c e95c 273d
00000180: 1f83 de3d e9f8 bc3c fe21 d63b 49f3 9f3c
00000190: e273 293c efc1 69bc 7c54 85bd f068 843d
000001a0: 512a 0ebd bfbe 103d 50da 09be 2247 3e3d
000001b0: caab 3abd f9e2 ffbd 17f4 a5bc 1968 643d
000001c0: defa b9bd a2c9 063e eaea 9cbc 17b1 01bd
000001d0: 1ffb a23c c91c d5bc 561f 8bbd 79f6 623d
000001e0: 7f2f 62bd 8778 7cbd 6056 b4bd 59d0 763c
000001f0: 4e5e 55bc a9db cd3c c0d3 69bd f62d 03bd
00000200: 5a31 a7bc 89af 663d 93e0 093d a447 9dbc
00000210: 6dea 9e3d 5f0c d9bc 25ea 26bd bbbc 8f3d
00000220: 6583 7cbd e71e 8ebd 496f 143d c2cb 1dbd
00000230: 4cef c43d 6621 9039 9339 1fbd cf37 033d
00000240: 1f2e 04bd 7de0 253d 75cb 3dbc 4992 e7bc
00000250: a532 b3bd 5e2f 8ebd ee9c 0bbd 5c66 9fbc
00000260: 7318 23bd eb1b e6bc 34d6 843d 5747 c23c
00000270: 4bce 87bd 3eff 41be 81b0 073e 758c 843d
00000280: 218e 683d 5b51 df3c fff0 7a3d 0fa8 8bbc
00000290: f335 d7bc 36b3 bb3b bf03 9fbb f779 87bd
000002a0: f7b2 263d e402 b2bc 170e 2d3d 2cc2 8dba
000002b0: 4222 54bd 3b00 693c 1f31 29be d31e 39be
000002c0: fe22 38bd af04 88bd bfaf 85bd d203 eebc
000002d0: e001 2e3e fc10 ccbc b5a6 3f3c 8c3f bbbc
000002e0: 8cdd 61bd ca2b 833d 2833 9fbc de1d 2d3d
000002f0: 834d 883c 85d3 44bc f99e b9bc e34f 1bbc
00000300: e6e5 cdbc 1c37 24be 583e 253d 0c9d db3c
00000310: f15d 00be 36ec 803b 5bd6 31bd 46ad c2bc
00000320: f4fe 8b3d 74ff 623d 3a54 65bd 563e a1ba
00000330: 1e57 61bd 604a 3bbe 8159 f0bc 468f 6eba
00000340: a0a1 c93d 9f77 a9bc cb0f 0c3e 0aa3 153d
00000350: 092a 2c3d 9f22 84bd 3502 463d e22e 29bd
00000360: bb2a 6abd eeb4 7bbe a4e5 21bc d171 013e
00000370: 8aa4 ac3c f7d5 4e3c ab1f 16bc 0bc9 183d
00000380: 135b 26bd eb06 863c 8cda 0fbb c2df cc3c
00000390: c8b1 51bc 45fb 3a3e b0b1 423d 760d 083c
000003a0: 4eb4 943d 5241 b8bc 958a 2cbc 2de4 4a3d
000003b0: 5813 a2bc 2990 07bd 4d94 6cbc 89b2 163d
000003c0: c8bd 2bbc e9c6 1cbd e7a1 b63a 1b92 cf3c
000003d0: 7733 073a bae2 2c3d 5584 413c 0fbe 7a3d
000003e0: f15f b13c a340 883d 08c0 193d 8c63 263a
000003f0: 872c 48bc b00f 593d c610 89bd 2813 063d

fc2.bias f4 [100]
-0.017484685 0.04007009 0.020418689 0.065163136 -0.15208197 -0.13448478 -0.11059928 -0.20122589
-0.12888311 0.048369497 0.0403288 0.1799608 0.15709762 -0.10745427 -0.051840693 0.08024361
0.02647347 -0.119885 0.01783443 -0.06969787 -0.12118387 0.089936115 0.048429076 0.14648028
0.284516 -0.11754656 0.07976451 -0.11293489 0.11672248 0.0059252917 0.015976075 -0.0495644
0.13280056 -0.030279022 0.06713733 0.015598117 -0.07204586 -0.09251701 0.20146263 0.05104042
-0.046187814 0.1474992 -0.13280006 -0.101744376 -0.12632336 -0.05124008 -0.1479294 -0.10376829
-0.17360486 -0.09778066 -0.105198205 -0.10417494 -0.118626684 -0.036827836 -0.030629618 -0.12793149
0.10751954 0.1318598 0.038836367 0.113357864 0.10910253 0.050162926 0.10842645 0.0071228803
-0.039462425 0.13767163 0.025864845 -0.02404921 -0.08416731 0.15531874 0.032515164 -0.059337746
-0.02040048 0.046047784 0.09706774 -0.17885014 -0.076900005 -0.04622775 0.003982327 0.11989836
-0.07557587 -0.00036071718 0.004510358 0.08412161 -0.0812717 -0.07175015 -0.030299358 -0.05381118
-0.056170076 -0.058572672 0.14412504 -0.042375926 -0.15385383 -0.06686715 0.013298121 0.031173963
-0.059525363 0.055701703 0.041203782 -0.033382725
00000000: 0b3c 8fbc 8920 243d 1845 a73c 4074 853d
00000010: 60bb 1bbe 61b6 09be e081 e2bd 290e 4ebe
00000020: eff9 03be 181f 463d d02f 253d a547 383e
00000030: 33de 203e fc10 dcbd e856 54bd c356 a43d
00000040: e4de d83c 4486 f5bd 8319 923c c2bd 8ebd
00000050: 402f f8bd 6d30 b83d 915d 463d edfe 153e
00000060: 15ac 913e 40bc f0bd 935b a33d 684a e7bd
00000070: 320c ef3d f328 c23b 42e0 823c 0a04 4bbd
00000080: dffc 073e b60b f8bc 4c7f 893d 3f8f 7f3c
00000090: c88c 93bd 8f79 bdbd 384c 4e3e c20f 513d
000000a0: 6f2f 3dbd 080a 173e bdfc 07be 5b5f d0bd
000000b0: e95a 01be 1ee1 51bd ce7a 17be 7884 d4bd
000000c0: 79c5 31be 3a41 c8bd 2872 d7bd ac59 d5bd
000000d0: 8cf2 f2bd c9d8 16bd f7ea fabc 7900 03be
000000e0: 3433 dc3d 4106 073e e212 1f3d 2b28 e83d
000000f0: 2671 df3d a477 4d3d b00e de3d 0d67 e93b
00000100: 5aa3 21bd cbf9 0c3e 83e2 d33c d902 c5bc
00000110: e95f acbd e00b 1f3e 9f2e 053d 230c 73bd
00000120: e81e a7bc 9a9c 3c3d 74cb c63d 7e24 37be
00000130: c07d 9dbd 4f59 3dbd 2e7e 823b 458d f53d
00000140: 86c7 9abd a41e bdb9 a0cb 933b f347 ac3d
00000150: c771 a6bd bef1 92bd 5c36 f8bc 1d69 5cbd
00000160: 9812 66bd e6e9 6fbd 8495 133e 6192 2dbd
00000170: dc8b 1dbe a5f1 88bd 5de0 593c 8a60 ff3c
00000180: ded0 73bd 7827 643d 4cc5 283d 53bc 08bd
